ece324-hw4/MyBest.pt (torch, 120663 bytes, 32 tensors)

conv_batch_norm.0.weight f4 [30]
0.9290319 1.1718353 1.219912 1.9375247 0.7632103 0.9191632 1.6269388 2.0482113
1.1105545 0.4798938 1.1980611 1.4540209 2.2932615 1.03386 1.134308 1.6664102
1.1633526 0.84946924 1.401925 1.2373868 1.3112657 0.63682675 2.022685 1.6548332
1.2723796 0.64623123 0.8630927 1.6645702 1.6607525 0.85014415
00000000: 09d5 6d3f b3fe 953f 1426 9c3f cf00 f83f
00000010: c061 433f 484e 6b3f 883f d03f e515 0340
00000020: a626 8e3f a4b4 f53e 115a 993f 5b1d ba3f
00000030: ccc4 1240 8655 843f 0131 913f ee4c d53f
00000040: bde8 943f d176 593f 4772 b33f b162 9e3f
00000050: 8ed7 a73f 1407 233f ac73 0140 93d1 d33f
00000060: 56dd a23f 696f 253f a5f3 5c3f a310 d53f
00000070: 8a93 d43f 0ca3 593f

conv_batch_norm.0.bias f4 [30]
0.8979216 0.68213654 0.5205802 -0.7650932 -0.15445355 0.06041763 0.30904877 0.31477222
-0.22266434 -0.31625557 0.2914114 -0.15437652 1.3800333 -0.35056132 -0.030108456 0.10304111
-0.3302948 -0.08022573 1.1654587 0.06912542 -0.1660374 0.06078892 -0.117241375 -0.18975124
0.34580743 0.467965 -0.028278219 -0.27714992 -0.17539072 0.045666765
00000000: 31de 653f 80a0 2e3f be44 053f 26dd 43bf
00000010: 1229 1ebe 7a78 773d a43b 9e3e d329 a13e
00000020: 1f02 64be 40ec a1be e033 953e e114 1ebe
00000030: eea4 b03f c67c b3be 02a6 f6bc 3807 d33d
00000040: 661c a9be 634d a4bd c02d 953f a191 8d3d
00000050: b505 2abe cdfd 783d 3f1c f0bd 264e 42be
00000060: ac0d b13e 1c99 ef3e b9a7 e7bc 98e6 8dbe
00000070: a099 33be 130d 3b3d

conv_batch_norm.0.running_mean f4 [30]
-0.19958176 -0.14599091 0.13397276 0.21193019 0.0087411385 0.20900738 -0.24864554 0.54299384
0.08610747 0.036599874 0.22331455 -0.033917762 -0.04813619 -0.15218037 -0.059050083 0.13214745
0.13858183 -0.14015278 -0.198923 -0.06004294 0.035546824 0.08769628 0.0048264572 -0.01442545
-0.1037313 0.1345969 -0.036558934 -0.3402786 0.056526933 0.096605554
00000000: 295f 4cbe a47e 15be 2830 093e 3a04 593e
00000010: fe36 0f3c 0806 563e f09c 7ebe a501 0b3f
00000020: 1d59 b03d c0e9 153d 92ac 643e 5aed 0abd
00000030: 742a 45bd 2cd5 1bbe 80de 71bd a951 073e
00000040: 65e8 0d3e 3684 0fbe 79b2 4bbe 96ef 75bd
00000050: 8c99 113d 1b9a b33d 4227 9e3b b958 6cbc
00000060: 1371 d4bd c5d3 093e d2be 15bd ff38 aebe
00000070: c988 673d 22d9 c53d

conv_batch_norm.0.running_var f4 [30]
2.8944225 4.7875953 4.7189584 12.808966 1.6107743 2.984811 6.856849 15.584577
4.654025 3.0097787 5.371435 4.8004594 7.8202314 5.266798 4.541483 10.61333
9.128953 1.4640515 7.212581 3.244225 2.3264575 2.9357667 13.163366 8.279516
7.32432 1.5737307 2.0176783 7.6685634 7.185454 2.586667
00000000: 383e 3940 fb33 9940 b501 9740 86f1 4c41
00000010: da2d ce3f 2507 3f40 4f6b db40 6d5a 7941
00000020: c6ed 9440 37a0 4040 cce2 ab40 5d9d 9940
00000030: 563f fa40 9c89 a840 d453 9140 33d0 2941
00000040: 3110 1241 0a66 bb3f 77cd e640 62a1 4f40
00000050: aee4 1440 9ae3 3b40 269d 5241 e678 0441
00000060: d460 ea40 0270 c93f a421 0140 df64 f540
00000070: 3def e540 f48b 2540

conv_batch_norm.1.weight f4 [30]
1.6285257 2.7041693 1.4670143 1.3205073 1.1919354 2.5264397 1.7162927 2.1183848
1.444079 2.5257792 1.998257 1.8107073 1.0438638 1.3656485 1.4428736 1.2888432
1.3056104 1.6900983 1.3416299 1.8603365 1.4101782 2.0559435 1.2667117 1.4146233
1.7418089 2.3209825 1.3534267 1.6159533 0.9221625 2.1811996
00000000: 8873 d03f 1c11 2d40 20c7 bb3f 6206 a93f
00000010: 5791 983f 30b1 2140 7baf db3f 9e93 0740
00000020: 95d7 b83f 5ea6 2140 e3c6 ff3f 42c5 e73f
00000030: 549d 853f 92cd ae3f 15b0 b83f d0f8 a43f
00000040: 3e1e a73f 2455 d83f 87ba ab3f 821f ee3f
00000050: b880 b43f 9494 0340 9c23 a23f 6012 b53f
00000060: 98f3 de3f fa8a 1440 163d ad3f 8fd7 ce3f
00000070: d712 6c3f c698 0b40

conv_batch_norm.1.bias f4 [30]
-0.24697465 0.7896185 -0.9311614 -0.2950879 -0.0560736 0.24979213 -0.2639383 0.29759398
-0.7397117 0.29549435 -0.42073503 0.23455006 -0.37824607 -0.45434448 0.3493809 -0.34935567
-0.66517496 -0.74610054 -0.12543929 0.30766034 -0.38893446 0.008630061 -0.5474431 -0.6925385
-0.60215 -0.25855562 -0.56255054 0.57057023 -0.09906468 -0.2082314
00000000: ece6 7cbe 7024 4a3f 9860 6ebf c315 97be
00000010: 6ead 65bd 82c9 7f3e ec22 87be 3d5e 983e
00000020: bf5d 3dbf 094b 973e 956a d7be e42d 703e
00000030: 78a9 c1be d79f e8be 0ee2 b23e bfde b2be
00000040: e848 2abf 7200 3fbf 2873 00be a885 9d3e
00000050: 6b22 c7be 1965 0d3c 3b25 0cbf 344a 31bf
00000060: 8126 1abf 6761 84be 5003 10bf e410 123f
00000070: 6ce2 cabd 9d3a 55be

conv_batch_norm.1.running_mean f4 [30]
-9.632719 -11.029607 5.232395 -2.8025687 -4.30103 -17.54959 -15.868486 -6.0713778
-9.193668 -14.180027 -13.494286 -8.609898 -7.4728007 -3.7401412 -11.611218 -4.8174615
4.5926585 -7.2383227 -5.56585 -5.9020147 -4.9087324 -12.820806 -2.5806267 -4.394167
-17.462212 -22.897318 -5.3597727 -8.551363 -5.6402225 -9.53474
00000000: 9e1f 1ac1 4579 30c1 c86f a740 495d 33c0
00000010: 0aa2 89c0 8f65 8cc1 52e5 7dc1 ba48 c2c0
00000020: 4419 13c1 64e1 62c1 98e8 57c1 24c2 09c1
00000030: 2f21 efc0 795e 6fc0 8dc7 39c1 a528 9ac0
00000040: 0ff7 9240 57a0 e7c0 711b b2c0 4edd bcc0
00000050: 5614 9dc0 0522 4dc1 fd28 25c0 049d 8cc0
00000060: 9cb2 8bc1 b52d b7c1 4283 abc0 62d2 08c1
00000070: b47c b4c0 4c8e 18c1

conv_batch_norm.1.running_var f4 [30]
188.62021 393.74002 224.1307 143.00578 107.16265 236.36388 165.05467 213.71513
151.93332 294.23782 156.97191 155.67795 67.14254 79.291336 215.53831 121.712036
93.65012 186.84933 198.09967 170.56491 60.393948 110.455124 90.619194 140.9294
187.24062 180.13013 110.41686 200.89899 70.66543 174.26828
00000000: c69e 3c43 b9de c443 7621 6043 7b01 0f43
00000010: 4753 d642 275d 6c43 ff0d 2543 13b7 5543
00000020: eeee 1743 711e 9343 cff8 1c43 8ead 1b43
00000030: fb48 8642 2a95 9e42 cf89 5743 906c f342
00000040: dd4c bb42 6ed9 3a43 8419 4643 9e90 2a43
00000050: 6793 7142 06e9 dc42 073d b542 eded 0c43
00000060: 993d 3b43 5021 3443 6fd5 dc42 24e6 4843
00000070: b354 8d42 ae44 2e43

conv_batch_norm.2.weight f4 [30]
1.6532476 2.4465866 1.8589138 1.3257124 2.120056 1.5052367 2.0898552 2.3095496
1.7479069 2.0336711 1.9564652 1.7819445 1.968665 2.0156043 1.9042046 2.0612407
1.9181598 2.509708 1.9554341 1.8028651 2.3267815 1.6116132 0.99555135 1.8818765
2.1465013 1.6177227 1.97131 2.8335476 1.9110386 2.2545075
00000000: 9e9d d33f e094 1c40 e3f0 ed3f f2b0 a93f
00000010: ffae 0740 99ab c03f 30c0 0540 a9cf 1340
00000020: 6abb df3f ab27 0240 746d fa3f c216 e43f
00000030: 37fd fb3f a9ff 0040 fabc f33f 5eeb 0340
00000040: 4386 f53f 0e9f 2040 aa4b fa3f 49c4 e63f
00000050: fde9 1440 5749 ce3f 74dc 7e3f 54e1 f03f
00000060: 4760 0940 8a11 cf3f e353 fc3f d858 3540
00000070: ea9c f43f da49 1040

conv_batch_norm.2.bias f4 [30]
-0.88411915 -1.4247018 -0.9041108 -0.2685939 -1.1135391 0.11018731 -0.5165382 -0.77274096
-0.11943111 -1.0044 -0.015258279 -0.89156663 -0.49901518 -0.17418541 -0.8169039 -0.5304033
-1.3297095 -1.1596466 -0.40139467 -1.6229573 -1.2989172 -0.41835824 -0.5425094 -1.2020491
-0.05029715 -0.8552889 -1.2834553 -1.1404884 -0.8063941 -0.86938465
00000000: a255 62bf a15c b6bf ce73 67bf 2485 89be
00000010: 7388 8ebf e2a9 e13d d93b 04bf 5ad2 45bf
00000020: 4c98 f4bd 2e90 80bf dcfd 79bc b63d 64bf
00000030: eb7e ffbe a95d 32be 9d20 51bf 83c8 07bf
00000040: ec33 aabf 4d6f 94bf 9a83 cdbe 11bd cfbf
00000050: eb42 a6bf 0d33 d6be e5e1 0abf bfdc 99bf
00000060: 6204 4ebd 37f4 5abf 4348 a4bf 86fb 91bf
00000070: d86f 4ebf fe8f 5ebf

conv_batch_norm.2.running_mean f4 [30]
0.9575989 -4.6966066 -7.722275 -11.583981 -14.813175 -14.681898 -9.149285 -9.595492
-16.255066 -38.45004 -9.959217 -2.4364238 -6.4125547 -10.4604845 -1.9844667 -7.80195
-4.2933145 -19.75029 -5.4062557 -6.9228115 1.2159417 -7.7684193 -5.3302703 -23.673223
-14.934593 -7.6092 -19.591402 -24.28326 -10.462834 -1.8463132
00000000: 3425 753f 9a4a 96c0 e01c f7c0 fc57 39c1
00000010: c402 6dc1 0ee9 6ac1 7963 12c1 2387 19c1
00000020: 600a 82c1 d7cc 19c2 f458 1fc1 5eee 1bc0
00000030: a633 cdc0 255e 27c1 0103 febf 93a9 f9c0
00000040: d562 89c0 9800 9ec1 0c00 adc0 ac87 ddc0
00000050: faa3 9b3f e496 f8c0 9391 aac0 c362 bdc1
00000060: 18f4 6ec1 917e f3c0 31bb 9cc1 1e44 c2c1
00000070: c567 27c1 fe53 ecbf

conv_batch_norm.2.running_var f4 [30]
108.25129 254.14735 157.90584 127.02797 100.16316 208.37627 219.58694 172.8915
112.64614 107.99489 77.43643 105.2927 91.442406 87.27473 206.24632 61.792397
140.87506 193.88826 167.94687 120.3212 151.53607 119.40508 54.7147 139.64085
237.70244 155.66063 120.96211 225.64621 169.86841 92.34585
00000000: a980 d842 b925 7e43 e5e7 1d43 520e fe42
00000010: 8a53 c842 5360 5043 4296 5b43 39e4 2c43
00000020: d34a e142 62fd d742 74df 9a42 dd95 d242
00000030: 83e2 b642 a98c ae42 0f3f 4e43 6a2b 7742
00000040: 04e0 0c43 65e3 4143 66f2 2743 74a4 f042
00000050: 3c89 1743 67cf ee42 dadb 5a42 0fa4 0b43
00000060: d3b3 6d43 1fa9 1b43 9aec f142 6ea5 6143
00000070: 50de 2943 13b1 b842

conv_batch_norm.3.weight f4 [30]
1.7779979 1.9159808 2.1857111 2.2212226 1.8062222 1.6571753 1.5740813 2.0130317
1.887304 2.0318532 1.6551337 2.1531925 2.3170002 1.7740208 1.7274199 2.0133655
2.0556393 1.7815794 2.287981 2.399973 1.8743325 1.8249056 2.016896 1.6412079
1.9690295 2.4607046 1.7344035 1.7332518 2.2096965 1.9122778
00000000: 6f95 e33f dc3e f53f b1e2 0b40 8328 0e40
00000010: 4a32 e73f 521e d43f 7f7b c93f 83d5 0040
00000020: 2d93 f13f e209 0240 6cdb d33f e8cd 0940
00000030: bb49 1440 1d13 e33f 181c dd3f fbda 0040
00000040: 988f 0340 cb0a e43f 486e 1240 2899 1940
00000050: 21ea ef3f 8296 e93f d314 0140 1a13 d23f
00000060: 2909 fc3f 2f7c 1d40 ef00 de3f 32db dd3f
00000070: ab6b 0d40 85c5 f43f

conv_batch_norm.3.bias f4 [30]
0.35611418 -0.013234731 0.10387525 0.22960183 0.02454686 0.32985845 0.37077066 -0.1158849
0.54600537 -0.32483038 0.32915008 -0.7419005 1.001445 -0.10462477 -0.10390832 -0.16779648
0.048484873 -0.4748918 -0.8367916 -0.2047774 -0.33056006 -0.7969131 -0.5239904 0.627771
0.7514787 0.23398414 -0.30832916 -0.6656981 -0.06498771 -0.26299492
00000000: 9954 b63e 7cd6 58bc 8cbc d43d be1c 6b3e
00000010: 7f16 c93c 35e3 a83e a7d5 bd3e 1055 edbd
00000020: 02c7 0b3f 2b50 a6be 5c86 a83e 31ed 3dbf
00000030: 5a2f 803f 8345 d6bd e3cd d4bd d7d2 2bbe
00000040: 1398 463d 0525 f3be f937 56bf 2bb1 51be
00000050: 2b3f a9be 7f02 4cbf 3c24 06bf 9ab5 203f
00000060: e860 403f 8a99 6f3e 52dd 9dbe 316b 2abf
00000070: 4718 85bd 45a7 86be

conv_batch_norm.3.running_mean f4 [30]
4.5151477 3.9333994 0.8254219 0.22106896 1.2767439 -3.451399 6.60949 3.2700322
0.7411024 -8.600119 3.7760446 -1.6388211 19.607594 -2.1186383 -2.055491 5.9473324
2.8427982 13.757148 8.141243 -0.13755134 -0.47369763 5.2586107 -4.264395 -6.908667
4.2042103 2.360758 -4.828258 -6.69578 6.5898604 1.8482195
00000000: 177c 9040 d1bc 7b40 da4e 533f e75f 623e
00000010: 586c a33f b9e3 5cc0 f180 d340 3548 5140
00000020: e3b8 3d3f 169a 09c1 b7aa 7140 e4c4 d1bf
00000030: 5adc 9c41 c597 07c0 2a8d 03c0 8c50 be40
00000040: 68f0 3540 471d 5c41 8842 0241 42da 0cbe
00000050: 7f88 f2be 8a46 a840 ed75 88c0 cd13 ddc0
00000060: e488 8640 a916 1740 1781 9ac0 d443 d6c0
00000070: 23e0 d240 7592 ec3f

conv_batch_norm.3.running_var f4 [30]
141.75084 109.09396 203.0499 206.94695 88.405815 151.05504 115.10629 186.63731
167.25378 118.887596 131.604 110.094536 179.39867 131.34737 158.42712 163.31705
195.02547 162.22763 202.2631 255.65004 150.31213 129.81009 99.728485 103.816475
147.86005 273.731 92.479774 103.39324 208.01099 102.83835
00000000: 37c0 0d43 1c30 da42 c60c 4b43 6bf2 4e43
00000010: c7cf b042 170e 1743 6c36 e642 27a3 3a43
00000020: f840 2743 73c6 ed42 a09a 0343 6730 dc42
00000030: 0f66 3343 ed58 0343 586d 1e43 2a51 2343
00000040: 8506 4343 463a 2243 5b43 4a43 69a6 7f43
00000050: e84f 1643 62cf 0143 fc74 c742 09a2 cf42
00000060: 2cdc 1343 91dd 8843 a5f5 b842 57c9 ce42
00000070: d002 5043 3cad cd42

conv.0.weight f4 [30, 3, 3, 3]
-0.33082303 -0.19766897 -0.37815708 -0.11000255 0.20014492 0.22785334 0.452922 0.87530106
0.27618662 -0.65508205 -0.7294483 -0.6107765 -0.45568052 -0.15806462 -0.15216188 0.25148934
0.60493916 0.32951167 -0.5052847 -0.44099113 -0.18662219 0.16961281 0.18786827 0.34546348
0.44788104 0.75396335 0.6134549 -0.59147793 -0.2988866 -0.088276535 -0.5415244 -0.097442016
-0.45843214 -0.55152595 -0.53035575 -0.5925065 0.15741096 0.82912886 0.92617047 0.33760428
0.5812651 0.46509793 0.19325256 0.17584369 0.23402579 -0.20965786 0.4010217 0.5873571
-0.27031398 0.14150766 0.31429785 -0.1320977 -0.039430242 -0.017829314 0.056630917 0.14287591
-0.13205785 0.1905699 0.18488963 -0.26960608 0.45987535 0.17632027 -0.3765948 0.41324762
0.6952191 0.10282161 0.5908754 0.52754754 0.08540969 0.64071184 -0.025227632 -0.38223875
0.048427388 0.32347092 -0.11516761 0.34437895 0.09289785 -0.62537324 0.065571524 -0.40071324
-0.89277375 1.2686632 1.3391659 0.62762964 -0.039961677 0.11238802 0.28797233 -0.698436
-0.42007986 -0.4498881 0.9968431 0.9683519 0.5955482 -0.27503106 -0.48441485 -0.38810527
-0.9151651 -1.0041922 -1.1867301 0.6742269 0.9387603 0.42764804 -0.43192008 -0.32137048
-0.48009062 -0.9181609 -1.0552722 -1.0953424 -0.11327954 -0.08244599 -0.18334308 0.03305576
-0.21962205 0.1706395 0.12761036 -0.17984545 0.019411182 0.119409904 0.10579446 0.104438834
0.18878348 0.067154095 0.017645955 0.25312588 -0.07660356 0.031401623 0.092807494 0.019731123
0.01692764 -0.01960903 0.04298776 0.1716781 0.061926514 0.13112581 0.30253834 0.16734774
0.26715028 -0.007683846 0.35823613 0.5186132 0.38674054 0.29865038 0.35107902 0.1167669
0.058699522 0.10739102 0.022362806 0.27364278 0.14360498 -0.16148601 -0.12419719 -0.20639399
-0.20458227 0.1858514 0.13922055 -0.42078182 0.25182417 -0.07076866 -0.18421902 -0.13123108
-0.19602996 -0.3034737 -1.1687771 -0.71945274 -0.05285006 -1.0027034 -0.3719006 0.23432237
-0.94702315 -0.052933667 0.45132497 -0.421229 0.39568245 0.9153021 -0.44580537 0.6243318
0.9721652 -0.15974401 0.8086935 0.8369754 -0.7450127 -0.3078727 0.47773206 -0.68103105
0.028042627 0.49339864 -0.65469223 -0.030318594 0.2019218 1.2471609 1.5995133 1.3594848
-0.26452821 0.2466817 1.7449703 -0.3732623 -0.7869077 0.94084245 -0.2665936 -0.04949402
-0.11678624 -1.6295046 -1.742962 -0.23530307 -2.0678692 -2.421376 -1.2726271 1.2197376
1.1664959 0.980806 -0.23512872 -0.21801779 1.1337867 -0.31054056 -0.7991545 0.32030022
0.26848158 0.21373516 0.7409383 0.14167623 0.14169595 0.36686602 0.48862088 0.3999587
0.13898252 -0.004854585 -0.38155586 -0.026902055 -0.18051223 -0.30430594 -0.22309135 0.25855365
0.06213133 0.16674294 0.068616405 -0.2967823 0.18378514 -0.17984474 -0.2639176 -0.05607441
0.23846854 0.2844069 0.06331722 -0.11331691 -0.16026832 -0.5161162 0.18893653 -0.19699816
-0.007465183 -0.04576121 -0.12642013 0.10419168 0.21740524 -0.15568438 -0.31197682 0.049366653
00000000: a361 a9be bc69 4abe ce9d c1be 0449 e1bd
00000010: caf2 4c3e 6352 693e 64e5 e73e bb13 603f
00000020: 5568 8d3e 75b3 27bf 20bd 3abf d95b 1cbf
00000030: f54e e9be b1db 21be 53d0 1bbe 36c3 803e
00000040: 4bdd 1a3f c1b5 a83e 575a 01bf 97c9 e1be
00000050: e319 3fbe fbae 2d3e 8a60 403e 97e0 b03e
00000060: aa50 e53e be03 413f 610b 1d3f 196b 17bf
00000070: aa07 99be 54ca b4bd 58a1 0abf ae8f c7bd
00000080: 9eb7 eabe ce30 0dbf 65c5 07bf 82ae 17bf
00000090: 5730 213e ca41 543f 8219 6d3f 78da ac3e
000000a0: cacd 143f 5121 ee3e 00e4 453e 5e10 343e
000000b0: 75a4 6f3e 8db0 56be b752 cd3e 095d 163f
000000c0: 9866 8abe 62e7 103e a6eb a03e 9f44 07be
000000d0: 9b81 21bd c80e 92bc d2f5 673d 104e 123e
000000e0: 2c3a 07be c224 433e b553 3d3e cf09 8abe
000000f0: c874 eb3e 4d8d 343e 09d1 c0be 3195 d33e
00000100: e1f9 313f 2394 d23d 9c43 173f 5b0d 073f
00000110: 47eb ae3d b105 243f 2eaa cebc ccb4 c3be
00000120: cc5b 463d fb9d a53e ffdc ebbd 7052 b03e
00000130: 3a41 be3d 7618 20bf 5d4a 863d 492a cdbe
00000140: d28c 64bf 8e63 a23f ca69 ab3f 56ac 203f
00000150: dbae 23bd b12b e63d 1c71 933e b4cc 32bf
00000160: b514 d7be bc57 e6be 1c31 7f3f e9e5 773f
00000170: d975 183f dfd0 8cbe 3905 f8be bcb5 c6be
00000180: 4348 6abf 5f89 80bf c6e6 97bf 229a 2c3f
00000190: 9852 703f aff4 da3e a124 ddbe ac8a a4be
000001a0: 70ce f5be 980c 6bbf 2913 87bf 2e34 8cbf
000001b0: 1aff e7bd 71d9 a8bd 4abe 3bbe 7a65 073d
000001c0: 9ae4 60be 1fbc 2e3e 4aac 023e 6829 38be
000001d0: 3304 9f3c 2e8d f43d c4aa d83d 07e4 d53d
000001e0: 7550 413e 1688 893d 408e 903c b799 813e
000001f0: 54e2 9cbd fd9e 003d db11 be3d 2aa3 a13c
00000200: d6ab 8a3c 1ea3 a0bc ef13 303d 62cc 2f3e
00000210: a8a6 7d3d d845 063e 4ee6 9a3e 355d 2b3e
00000220: ecc7 883e c6c8 fbbb ba6a b73e d6c3 043f
00000230: db02 c63e b4e8 983e a1c0 b33e 7c23 ef3d
00000240: e96e 703d d3ef db3d 3432 b73c e81a 8c3e
00000250: 2f0d 133e 975c 25be 195b febd f258 53be
00000260: 047e 51be d44f 3e3e d58f 0e3e b770 d7be
00000270: 19ef 803e 29ef 90bd e9a3 3cbe 7161 06be
00000280: 14bc 48be e860 9bbe 7d9a 95bf 0e2e 38bf
00000290: 4e79 58bd 9658 80bf c169 bebe 34f2 6f3e
000002a0: 1c70 72bf f9d0 58bd 1114 e73e 54ab d7be
000002b0: e496 ca3e 3d51 6a3f 9a40 e4be 35d4 1f3f
000002c0: d2df 783f ef93 23be 8a06 4f3f 0544 563f
000002d0: 27b9 3ebf 7ea1 9dbe 4c99 f43e 0d58 2ebf
000002e0: a7b9 e53c bf9e fc3e e999 27bf b35e f8bc
000002f0: 97c4 4e3e f8a2 9f3f dabc cc3f 9903 ae3f
00000300: 3e70 87be 219a 7c3e 305b df3f 3c1c bfbe
00000310: c872 49bf 0ddb 703f f57e 88be 3eba 4abd
00000320: a02d efbd 9b93 d0bf 6119 dfbf 4af3 70be
00000330: f857 04c0 d3f7 1ac0 72e5 a2bf 5d20 9c3f
00000340: bd4f 953f 1a16 7b3f 95c5 70be 0e40 5fbe
00000350: ec1f 913f 2cff 9ebe 6495 4cbf 64fe a33e
00000360: 6b76 893e 64dd 5a3e 22ae 3d3f 9313 113e
00000370: be18 113e ddd5 bb3e 842c fa3e 63c7 cc3e
00000380: 6f51 0e3e 3613 9fbb 4a5b c3be b361 dcbc
00000390: 33d8 38be fdcd 9bbe 0f72 64be 2561 843e
000003a0: 6c7d 7e3d a9be 2a3e c286 8c3d daf3 97be
000003b0: 2c32 3c3e 3829 38be 3520 87be 48ae 65bd
000003c0: 1931 743e c89d 913e 75ac 813d b212 e8bd
000003d0: 611d 24be 3120 04bf 9478 413e e3b9 49be
000003e0: 7e9e f4bb 1b70 3bbd 4774 01be 7362 d53d
000003f0: 7b9f 5e3e ba6b 1fbe 6dbb 9fbe b034 4a3d

conv.0.bias f4 [30]
-0.090229705 -0.0664906 0.052124634 -0.13382308 0.03175347 0.08327902 -0.07583976 0.15985912
-0.012665782 0.087317705 0.19058271 -0.058825176 0.10457859 -0.055046547 -0.028111212 -0.032615826
-0.0011959752 -0.07270397 0.045106083 0.0072535514 0.12199304 -0.03895156 0.019299183 -0.071591824
-0.16116887 0.07787781 0.024625009 -0.07707519 -0.065066375 0.05033043
00000000: 5aca b8bd 392c 88bd a480 553d eb08 09be
00000010: ed0f 023d 318e aa3d e051 9bbd 1cb2 233e
00000020: 2484 4fbc a0d3 b23d 1d28 433e abf2 70bd
00000030: 4d2d d63d 7d78 61bd 7c49 e6bc 2c98 05bd
00000040: 45c2 9cba d2e5 94bd 28c1 383d 33af ed3b
00000050: 7dd7 f93d ac8b 1fbd 5219 9e3c bc9e 92bd
00000060: 7409 25be 677e 9f3d 63ba c93c 99d9 9dbd
00000070: 8541 85bd 4827 4e3d

conv.1.weight f4 [30, 30, 3, 3]
-0.050936982 -0.021563403 0.25270718 -0.019763151 0.014964619 0.118993044 0.13493857 0.13451791
-0.026616845 -0.24098781 -0.12244868 0.044238392 -0.13271423 -0.16533868 0.12995352 0.023793243
-0.17875986 0.08792636 0.16366997 0.01960201 -0.31547856 -0.09377282 0.030745523 -0.41320872
-0.050176784 -0.06986606 -0.27928233 -0.14331768 -0.07587346 -0.59333074 -0.50174946 -0.42133644
-0.25872168 -0.30459142 -0.38647953 -0.47541323 0.019730207 -0.03937349 -0.1455851 0.0160254
-0.121599615 -0.18908831 -0.023129039 0.015451676 -0.07349629 0.05331808 -0.08016637 -0.27787355
-0.056774564 -0.08731159 -0.27240604 -0.017363053 -0.14491425 -0.20263278 -0.15868941 -0.117677554
0.12822859 -0.23166573 -0.19471899 0.40409553 -0.104883656 -0.13979855 0.41330177 -0.3715461
-0.04507151 0.040507384 -0.60119194 -0.33711082 0.19503464 -0.6153213 -0.30404988 -0.026063928
-0.036648188 -0.041813742 0.06755662 -0.040186636 -0.17521833 -0.09843334 -0.12181862 -0.2735039
-0.25175968 -0.056652326 -0.11389881 -0.056793656 0.0875298 -0.08364426 -0.14695604 -0.03811136
0.0113595845 -0.21749993 0.27416608 0.1791281 -0.30104968 0.1585527 0.17081402 -0.3131646
-0.07479669 -0.21473858 -0.4617725 0.03336546 0.64243555 0.05707524 0.14335856 0.33457717
-0.12079242 -0.019795198 -0.23309866 -0.27389902 -0.3088335 -0.23224865 -0.20510684 -0.19691552
-0.3357538 -0.20503195 0.14809704 -0.11652022 -0.14116813 -0.15987772 -0.037900046 0.38364694
-0.15682021 0.0581478 0.3637941 -0.18803394 -0.08446105 0.15182774 0.0055593713 -0.20554635
-0.11588434 0.04978451 -0.16082053 -0.14195673 0.12533838 -0.06369002 -0.21016622 0.017435078
0.48326644 0.47610325 -0.04787753 0.120480105 0.18682836 -0.21303646 -0.089127325 -0.13069071
0.0013847658 0.044129014 -0.08937124 -0.1291359 -0.12610735 -0.12566468 -0.18350446 -0.19402653
-0.22632685 0.05315165 0.35076007 -0.12262649 0.08312498 0.12586509 -0.2012656 -0.135636
-0.15123403 -0.14776921 -0.19002537 -0.257913 0.09389998 0.008994428 -0.17025147 0.026704364
-0.02748367 0.025112825 0.1654355 -0.08913365 -0.008054502 0.43313676 -0.12128978 0.03607131
0.5747265 -0.19512746 -0.12087527 0.19837153 0.1421249 0.092464045 -0.07905612 0.09531575
0.23290287 -0.21878333 -0.066804335 0.08663835 -0.39602694 0.26618758 0.14999312 0.08004302
0.08663961 0.03366783 -0.0072447076 0.027980316 -0.09025274 -0.18549459 0.78916657 0.72453064
0.0080377925 0.45547417 0.4922023 -0.36565152 -0.099321604 0.15801685 -0.40685323 0.5420336
0.4414963 -0.40262794 0.27215457 0.28451774 -0.46551543 -0.121111624 0.02015399 -0.29366624
-0.20032108 0.17638753 0.49578857 -0.35041413 -0.043809887 0.21222831 -0.45146278 -0.16575149
-0.2239542 -0.24742676 -0.110578634 -0.04215491 -0.27049795 -0.27443275 -0.051150482 -0.060046963
-0.24242796 -0.17201461 -0.085252725 -0.1553112 -0.17694196 -0.08250373 0.05707589 -0.1621347
-0.028113168 -0.004524535 -0.19073166 -0.06082316 0.1779182 0.65022683 -0.27231088 -0.06916225
0.27464756 -0.3960074 -0.26172498 0.032582708 -0.43222138 0.18646102 0.47055975 -0.33728382
00000000: 4ca3 50bd bca5 b0bc d662 813e 55e6 a1bc
00000010: 292e 753c a0b2 f33d 562d 0a3e 10bf 093e
00000020: 920b dabc 82c5 76be 60c6 fabd 5133 353d
00000030: 3de6 07be 8b4e 29be 8912 053e 0cea c23c
00000040: d30c 37be bc12 b43d 1a99 273e 6594 a03c
00000050: 6886 a1be f70b c0bd 09de fb3c 1890 d3be
00000060: 2c86 4dbd f015 8fbd 18fe 8ebe dfc1 12be
00000070: 8b63 9bbd 86e4 17bf a772 00bf 69b9 d7be
00000080: 2b77 84be 68f3 9bbe a5e0 c5be 5d69 f3be
00000090: 3ea1 a13c 1946 21bd 4314 15be b347 833c
000000a0: 3809 f9bd 5ea0 41be 1c79 bdbc 0729 7d3c
000000b0: 3985 96bd 0f64 5a3d 442e a4bd 7145 8ebe
000000c0: 728c 68bd 6bd0 b2bd ce78 8bbe f63c 8ebc
000000d0: 6764 14be f87e 4fbe 7a7f 22be ee00 f1bd
000000e0: 5b4e 033e c839 6dbe 6a64 47be 9ce5 ce3e
000000f0: 3ecd d6bd 5a27 0fbe 4a9c d33e 4a3b bebe
00000100: e79c 38bd 12eb 253d b7e7 19bf ca99 acbe
00000110: 29b7 473e b285 1dbf 6dac 9bbe 0584 d5bc
00000120: 691c 16bd e344 2bbd 205b 8a3d be9a 24bd
00000130: 6f6c 33be 6b97 c9bd 0a7c f9bd b408 8cbe
00000140: a5e6 80be 450c 68bd c843 e9bd 77a0 68bd
00000150: d342 b33d af4d abbd a57b 16be a81a 1cbd
00000160: 8d1d 3a3c 4db8 5ebe 7f5f 8c3e 5b6d 373e
00000170: 2f23 9abe a45b 223e dfe9 2e3e 1c57 a0be
00000180: 022f 99bd 6ee4 5bbe 726d ecbe 38aa 083d
00000190: a876 243f bac7 693d 96cc 123e b34d ab3e
000001a0: 0462 f7bd 8a29 a2bc 6ab1 6ebe 7e3c 8cbe
000001b0: 6d1f 9ebe 97d2 6dbe 8707 52be 39a4 49be
000001c0: ece7 abbe e5f3 51be c0a6 173e 27a2 eebd
000001d0: 618e 10be fcb6 23be 143d 1bbd 5f6d c43e
000001e0: 7a95 20be 632c 6e3d 3843 ba3e f88b 40be
000001f0: eaf9 acbd bb78 1b3e 632b b63b be7a 52be
00000200: c554 edbd d8ea 4b3d 23ae 24be 1b5d 11be
00000210: b458 003e ea6f 82bd d035 57be 02d4 8e3c
00000220: b36e f73e cec3 f33e 3b1b 44bd 46be f63d
00000230: ef4f 3f3e 3b26 5abe 6388 b6bd c9d3 05be
00000240: 0881 b53a a0c0 343d 4508 b7bd 343c 04be
00000250: 4922 01be 3eae 00be 98e8 3bbe e4ae 46be
00000260: 3ac2 67be 8bb5 593d d396 b33e 9923 fbbd
00000270: 6e3d aa3d c7e2 003e 9218 4ebe 2ae4 0abe
00000280: 18dd 1abe d050 17be 0396 42be 2c0d 84be
00000290: a24e c03d 5e5d 133c 6756 2ebe 1cc3 da3c
000002a0: 6f25 e1bc 69b9 cd3c ec67 293e b48b b6bd
000002b0: 08f7 03bc 1ac4 dd3e c766 f8bd 83bf 133d
000002c0: 4721 133f 7ecf 47be 748d f7bd e821 4b3e
000002d0: 3189 113e ca5d bd3d 2de8 a1bd e734 c33d
000002e0: 177e 6e3e bd08 60be b6d0 88bd 726f b13d
000002f0: 0bc4 cabe bd49 883e cc97 193e 98ed a33d
00000300: 1c70 b13d 47e7 093d 0365 edbb fa36 e53c
00000310: 6ed6 b8bd 4bf2 3dbe d206 4a3f d77a 393f
00000320: f2b0 033c e933 e93e f101 fc3e ad36 bbbe
00000330: 2069 cbbd 2bcf 213e 114f d0be b7c2 0a3f
00000340: ce0b e23e 4025 cebe d857 8b3e 4fac 913e
00000350: 0a58 eebe 5f09 f8bd fb19 a53c 6c5b 96be
00000360: f820 4dbe ef9e 343e 00d8 fd3e 7b69 b3be
00000370: ff71 33bd 6152 593e 2126 e7be c2ba 29be
00000380: 4054 65be 715d 7dbe 0d77 e2bd a0aa 2cbd
00000390: b57e 8abe 7382 8cbe 2b83 51bd cef3 75bd
000003a0: 093f 78be 9924 30be fb98 aebd e609 1fbe
000003b0: 4630 35be b7f7 a8bd 69c8 693d a406 26be
000003c0: 964d e6bc 8d42 94bb 294f 43be b521 79bd
000003d0: 3030 363e 4475 263f 556c 8bbe f0a4 8dbd
000003e0: 9b9e 8c3e 7bc1 cabe d100 86be 7275 053d
000003f0: 1f4c ddbe a3ef 3e3e 35ed f03e 77b0 acbe

conv.1.bias f4 [30]
0.049993247 -0.04974436 -0.06070146 -0.008922312 -0.0077922074 -0.024909364 0.004747561 0.032381654
0.03256109 0.017727902 0.042980455 -0.028371176 0.004065338 0.020402841 0.0195718 -0.021834487
0.049420588 -0.046507474 -0.028872646 -0.05837829 0.0072816336 -0.047283534 0.043308064 -0.04074949
0.01604524 0.054038275 0.05537293 0.020207362 0.022226099 0.010822368
00000000: b8c5 4c3d bec0 4bbd 18a2 78bd e42e 12bc
00000010: c655 ffbb b90e ccbc 6e91 9b3b a0a2 043d
00000020: c75e 053d 1b3a 913c 460c 303d ab6a e8bc
00000030: 8736 853b dc23 a73c 0a55 a03c 3dde b2bc
00000040: 3e6d 4a3d 9f7e 3ebd 5486 ecbc 131e 6fbd
00000050: c59a ee3b 61ac 41bd cc63 313d f0e8 26bd
00000060: 4f71 833c 3d57 5d3d bace 623d e989 a53c
00000070: 8213 b63c 4d50 313c

conv.2.weight f4 [30, 30, 3, 3]
-0.013916338 -0.045489542 0.2937123 -0.3494437 -0.59110904 -0.23628269 0.47444463 0.22852054
-0.09085397 0.27826965 0.6703914 0.38646597 0.06847151 0.043458294 0.22611314 -0.22694458
-0.6179675 -0.24264331 0.10708677 0.14943552 0.48458466 -0.41403478 -0.12665915 -0.114351034
-0.12574328 0.0069919624 -0.43860146 0.15221602 0.050566528 0.22942977 -0.5549304 -0.26526663
-0.2588605 -0.021927502 -0.010373858 -0.056162074 0.27009705 0.13223998 0.20415066 0.027054083
0.05540226 0.08887199 0.2816641 0.20145169 -0.56981397 -0.2575665 0.6320966 0.41076788
0.16448988 0.28064412 0.27986205 0.36164594 -0.4551098 -0.39735994 -0.22200426 0.07670132
0.29327223 -0.2517754 -0.103072844 0.021125883 0.6180584 0.6887766 0.27822667 -0.046200432
-0.03139068 -0.16505678 0.13784568 0.15026286 -0.17477705 -0.020406354 -0.5452232 -0.6157847
0.11435123 0.2412712 0.38126254 0.2607149 0.097555965 -0.5797604 1.0549979 0.6231496
-0.4175576 -0.107980296 0.15243761 -0.06386379 -0.21382302 -0.08451671 -0.187766 -0.1318546
-0.34453306 -0.4541615 0.34484774 0.9929029 0.21548033 0.06914808 -0.018682819 0.18839541
0.23758708 -0.22547881 0.43741256 0.14698645 0.3856705 0.25562686 0.13635193 -0.07146071
0.0970044 -0.29174408 -0.39798132 -0.07781228 0.29138684 -0.09897932 0.049498204 -0.17588326
-0.28023583 -0.1587675 0.6198051 0.53621894 0.051497363 0.24120067 -0.28578663 0.27413845
0.20320137 0.16050872 0.43869874 -0.19228913 0.092618644 0.23542516 -0.47185418 -0.58246434
-0.18986687 0.30485797 0.112380594 -0.13476771 0.95970315 0.5510273 -0.019391295 0.5791086
0.4295626 -0.14550138 0.44961578 -0.10559524 -0.736138 1.1856169 0.42110243 0.027855538
0.4950036 -0.19461076 0.12413592 -0.095767625 -0.42967543 -0.2800781 -0.5476214 0.03709195
-0.26071054 0.20869347 -0.05508059 -0.1949075 0.7498908 0.7318582 -0.3379272 0.32117403
0.2872478 0.28097445 -0.14710839 -0.21306305 -0.12153526 -0.23401982 -0.89874995 -0.15782313
0.34088895 -0.07135776 -0.049357336 -0.25693905 0.32151622 0.5094639 -0.033838063 -0.1631987
0.024062961 -0.09067726 -0.3708303 -0.3099167 0.12831613 -0.038104936 0.4421069 -0.15959126
-0.16344464 0.22517553 0.13508166 -0.115010954 -0.26961216 -0.25992966 0.0067185885 0.08248039
-0.039796792 0.02108522 0.026690632 -0.24811053 -0.42208645 -0.29647368 0.39917094 0.09590336
0.3521395 -0.5368254 -0.23179612 -0.12681635 -0.38521567 0.022372955 0.020011337 0.34028676
0.5033312 0.51937187 -0.1585592 -0.052526496 -0.07082423 0.47170836 -0.38926378 -0.046600573
0.07796293 0.50129694 0.41666296 -0.3119867 -0.21256855 -0.11792887 0.19682209 -0.30691448
0.013899978 -0.2896458 0.025436299 0.007080829 -0.07856309 -0.059895303 0.027035251 -0.17242886
-0.28617853 -0.13401826 -0.13274531 0.09405925 0.5350048 -0.45340097 0.03408295 -0.5630917
0.35615146 -0.5119792 0.08666211 -0.18152806 0.29412007 0.58963877 -0.90683585 -0.5624861
-0.13842413 -0.2139091 -0.18523113 -0.08152531 0.41824353 0.11745295 -0.106740266 0.0762963
00000000: 5a01 64bc 3e53 3abd 7561 963e 49ea b2be
00000010: ec52 17bf 17f4 71be 68ea f23e 4a01 6a3e
00000020: a511 babd 5c79 8e3e c59e 2b3f dede c53e
00000030: cb3a 8c3d 5301 323d 348a 673e 2964 68be
00000040: 1e33 1ebf 7d77 78be 4f50 db3d a005 193e
00000050: 7b1b f83e 5efc d3be f0b2 01be e030 eabd
00000060: d9c2 00be d51c e53b 5f90 e0be 84de 1b3e
00000070: d91e 4f3d a3ef 6a3e eb0f 0ebf 07d1 87be
00000080: 5d89 84be 4ea1 b3bc 1df7 29bc 340a 66bd
00000090: 294a 8a3e eb69 073e df0c 513e 86a0 dd3c
000000a0: 7bed 623d 8502 b63d 4736 903e 5a49 4e3e
000000b0: 54df 11bf c2df 83be 15d1 213f 2b50 d23e
000000c0: 0970 283e 96b0 8f3e 144a 8f3e a829 b93e
000000d0: 2704 e9be c372 cbbe 1655 63be 9515 9d3d
000000e0: c727 963e b5e8 80be db17 d3bd 3010 ad3c
000000f0: 1339 1e3f aa53 303f ba73 8e3e aa3c 3dbd
00000100: 8393 00bd a504 29be 6b27 0d3e 82de 193e
00000110: c1f8 32be 3a2b a7bc bf93 0bbf 11a4 1dbf
00000120: fa30 ea3d cc0f 773e d834 c33e 6c7c 853e
00000130: 6ccb c73d 2d6b 14bf 2c0a 873f bb86 1f3f
00000140: 1cca d5be c624 ddbd 9b18 1c3e 05cb 82bd
00000150: 6cf4 5abe 1917 adbd bb45 40be e404 07be
00000160: a366 b0be db87 e8be e28f b03e e22e 7e3f
00000170: e0a6 5c3e 829d 8d3d b60c 99bc baea 403e
00000180: 074a 733e ebe3 66be 8af4 df3e 9e83 163e
00000190: 9b76 c53e 86e1 823e d79f 0b3e fe59 92bd
000001a0: 3eaa c63d 7b5f 95be 35c4 cbbe 0b5c 9fbd
000001b0: a830 953e abb5 cabd a1be 4a3d be1a 34be
000001c0: 127b 8fbe f393 22be 8cab 1e3f a545 093f
000001d0: e6ee 523d 4ffd 763e a052 92be e05b 8c3e
000001e0: 0514 503e 665c 243e 1f9d e03e 71e7 44be
000001f0: d8ae bd3d 4b13 713e df96 f1be 621c 15bf
00000200: 766c 42be 5816 9c3e cc27 e63d 8c00 0abe
00000210: 1baf 753f 2010 0d3f 7eda 9ebc 7640 143f
00000220: a1ef db3e 50fe 14be 0a34 e63e 5142 d8bd
00000230: 8a73 3cbf 4bc2 973f bd9a d73e 4c31 e43c
00000240: 1d71 fd3e 0b48 47be f93a fe3d d121 c4bd
00000250: 6bfe dbbe 6666 8fbe eb30 0cbf bbed 173d
00000260: da7b 85be beb3 553e 2f9c 61bd d595 47be
00000270: d8f8 3f3f 0f5b 3b3f cb04 adbe ec70 a43e
00000280: 2512 933e e2db 8f3e 95a3 16be 332d 5abe
00000290: 7ae7 f8bd e4a2 6fbe 7a14 66bf 639c 21be
000002a0: ff88 ae3e 0424 92bd eb2a 4abd 848d 83be
000002b0: c69d a43e 3a6c 023f c899 0abd 8f1d 27be
000002c0: b01f c53c 00b5 b9bd 78dd bdbe 67ad 9ebe
000002d0: 4e65 033e ec13 1cbd d65b e23e e46b 23be
000002e0: 085e 27be 6a94 663e d952 0a3e dd8a ebbd
000002f0: 9b0a 8abe 8015 85be 9b27 dc3b 7beb a83d
00000300: f601 23bd e9ba ac3c 50a6 da3c b010 7ebe
00000310: b71b d8be 66cb 97be 2260 cc3e fb68 c43d
00000320: a14b b43e 646d 09bf f65b 6dbe 25dc 01be
00000330: fd3a c5be 7d47 b73c d1ee a33c 113a ae3e
00000340: 50da 003f 8ef5 043f 585d 22be 0626 57bd
00000350: 4b0c 91bd c283 f13e 954d c7be 3ee0 3ebd
00000360: 07ab 9f3d ff54 003f d954 d53e b9bc 9fbe
00000370: 92ab 59be b184 f1bd bb8b 493e e523 9dbe
00000380: bcbc 633c 744c 94be c95f d03c 4c06 e83b
00000390: afe5 a0bd c754 75bd 0879 dd3c 3191 30be
000003a0: fe85 92be 153c 09be 63ee 07be 23a2 c03d
000003b0: 13f6 083f 2c24 e8be 909a 0b3d c726 10bf
000003c0: 7c59 b63e 1211 03bf e87b b13d 7ee2 39be
000003d0: e896 963e 91f2 163f 6526 68bf 17ff 0fbf
000003e0: 0ebf 0dbe fd0a 5bbe 3bad 3dbe bef6 a6bd
000003f0: 0424 d63e 2c8b f03d a49a dabd 3c41 9c3d

conv.2.bias f4 [30]
-0.012259267 -0.031725585 -0.058913864 -0.0025470024 0.050795123 -0.05650742 -0.012240078 0.04753018
0.053498607 -0.04008024 -0.053040612 0.06038939 -0.029186659 0.016673831 -0.060382646 0.027888423
-0.00043156947 -0.011536481 -0.030280633 0.02646784 -0.024322478 -0.027025947 -0.038466223 0.04969793
0.0016694567 -0.009656177 0.011991676 0.041189175 -0.051013622 0.039833225
00000000: 18db 48bc b0f2 01bd aa4f 71bd 9ceb 26bb
00000010: 8c0e 503d 5374 67bd 9c8a 48bc 02af 423d
00000020: 5b21 5b3d 2e2b 24bd 1d41 59bd dd5a 773d
00000030: dc18 efbc 8f97 883c cb53 77bd 4376 e43c
00000040: 4644 e2b9 8203 3dbc 170f f8bc 15d3 d83c
00000050: ef3f c7bc 8565 ddbc c28e 1dbd 0f90 4b3d
00000060: acd1 da3a f134 1ebc bc78 443c fbb5 283d
00000070: a9f3 50bd 2a28 233d

conv.3.weight f4 [30, 30, 3, 3]
-0.13554733 0.12651744 0.41709036 -0.29402104 0.3436427 0.3412569 0.25840795 -0.42367995
-0.3474259 0.31661487 -0.1241761 0.020994669 -0.15305719 -0.1892724 -0.11342604 0.03137471
-0.24292383 -0.27162424 -0.12000894 0.49902952 0.1538021 0.040197514 0.6443616 0.31551185
0.3058497 -0.086459644 -0.08004644 0.16498336 -0.488053 -0.20196094 -0.4030783 -0.1265352
0.5154341 -0.16917908 0.28375775 0.7805707 0.047004946 0.50937486 -0.3439258 0.5602407
-0.36172113 -0.21075141 0.2732862 -0.93052804 0.75896853 0.5854466 0.32868034 0.07210639
0.49731258 0.844707 0.3747296 -0.34541652 0.39345333 0.31525475 -0.10269031 -0.5847704
-0.3504791 0.102679685 -1.0322949 -0.09572329 0.72484565 0.37440693 -0.7939532 0.112862095
0.25835887 0.27194592 -0.35141328 0.114774905 -0.6407339 0.5128046 -0.40970483 -0.56115896
0.12784612 -0.0121952975 -0.11475716 0.016007828 0.1495088 0.010859377 0.19188988 0.5499913
0.044196703 -0.5138752 -0.3701911 0.13444212 0.2759353 -0.010051762 -0.035180297 0.25145975
0.13888636 -0.2827568 0.4709991 -0.18479787 0.116229154 0.040687863 0.4077484 0.009052477
-0.1490699 -0.025102982 0.5835815 -0.112022504 0.13982494 -0.19794258 -0.3924243 0.42197034
-0.061678793 0.5779207 -0.32364509 -0.5288211 -0.026999569 0.10814348 -0.069788426 0.35219228
-0.2908427 -0.45625073 0.18445171 -0.110632025 0.4620002 0.05231051 -0.09822289 0.36542308
-0.30267808 0.23304678 -0.23015088 0.16614603 -0.17655405 -0.7145447 0.011798846 0.23372227
-0.17614752 -0.33480275 -0.44679233 0.042807914 -0.028841268 -0.042571954 -0.07315726 -0.04359677
0.10279251 0.10510877 -0.22852968 0.02955666 -0.42209563 0.101411596 -0.48713434 -0.6806808
0.46105042 0.5967087 -0.18439077 0.09984608 -0.2297005 -0.29063705 -0.24741328 -0.6415779
-0.06288673 0.029385008 0.28232417 0.7843067 0.34681323 -0.33720654 -0.14893284 -0.4116403
0.14977819 -0.49036753 0.6539898 0.30954495 0.2006203 -0.05608593 0.5437773 0.3270523
-0.06742648 -0.13234563 0.11864319 0.463863 0.20918392 -0.1671889 -0.14259402 -0.45051217
-0.123190954 -0.50881267 -0.35537985 -0.2113227 0.24399178 0.43060791 0.93174475 0.46791393
-0.20509166 -0.29464 0.3552823 -0.34994406 -0.2809941 -0.0739933 0.09476603 0.10516012
0.14305305 -0.3612868 -0.23186442 -0.12963568 0.15510426 -0.053410973 -0.1370367 -0.2575498
0.055301443 0.19720083 0.5244248 0.35579044 0.07687012 0.23610787 0.26513076 0.41501668
0.9998964 0.14959656 -0.16285871 -0.38407716 -0.6570565 0.23863898 -0.38730225 -0.007401165
0.0058246083 -0.38022688 -0.4303756 -0.7649805 -0.10545988 0.62493986 0.15769751 -0.20771502
0.34502715 -0.32252067 -0.50755453 -0.14555313 0.24354377 -0.39289322 0.3693127 0.25925145
0.19685729 0.53706956 0.06442257 0.09563584 0.51330954 -0.5863894 0.009592365 0.6311493
-0.14483596 -0.2618659 0.07876595 -0.50051343 0.076250784 -0.11780639 -0.08703957 -0.02887522
-0.22204418 0.36760512 -0.38242188 0.19744848 0.349161 0.6688664 -0.30699646 0.358329
00000000: ebcc 0abe ca8d 013e de8c d53e ed89 96be
00000010: f0f1 af3e 39b9 ae3e 0c4e 843e 94ec d8be
00000020: cfe1 b1be 581b a23e 0a50 febd 03fd ab3c
00000030: 06bb 1cbe a0d0 41be e94b e8bd c582 003d
00000040: 06c1 78be 5512 8bbe 3fc7 f5bd cc80 ff3e
00000050: 4c7e 1d3e 26a6 243d e2f4 243f c58a a13e
00000060: 5598 9c3e c111 b1bd 63ef a3bd 66f1 283e
00000070: 15e2 f9be d9ce 4ebe 4760 cebe 7292 01be
00000080: 7df3 033f 483d 2dbe b248 913e 7bd3 473f
00000090: 4288 403d 6466 023f 0b17 b0be ef6b 0f3f
000000a0: 8333 b9be 38cf 57be 2bec 8b3e 1637 6ebf
000000b0: c34b 423f d4df 153f ca48 a83e 84ac 933d
000000c0: c19f fe3e b83e 583f 8fdc bf3e 6fda b0be
000000d0: b772 c93e 1269 a13e 4c4f d2bd 83b3 15bf
000000e0: ff71 b3be ba49 d23d 3d22 84bf 930a c4bd
000000f0: 7c8f 393f 44b2 bf3e 8440 4bbf 3e24 e73d
00000100: 9d47 843e 7f3c 8b3e 71ec b3be 1b0f eb3d
00000110: 2307 24bf 2a47 033f d5c4 d1be 1da8 0fbf
00000120: 18ea 023e c9ce 47bc cd05 ebbd d922 833c
00000130: d618 193e 87eb 313c c87e 443e 3bcc 0c3f
00000140: 9a07 353d 538d 03bf b089 bdbe 32ab 093e
00000150: 6447 8d3e 25b0 24bc 3719 10bd 55bf 803e
00000160: 3a38 0e3e 80c5 90be cb26 f13e a73b 3dbe
00000170: 8d09 ee3d 51a8 263d 66c4 d03e d750 143c
00000180: c8a5 18be c5a4 cdbc 9965 153f 0e6c e5bd
00000190: 452e 0f3e 76b1 4abe d6eb c8be 7f0c d83e
000001a0: e7a2 7cbd 9cf2 133f cfb4 a5be d260 07bf
000001b0: 332e ddbc 547a dd3d 3ced 8ebd 8c52 b43e
000001c0: 56e9 94be b299 e9be e9e0 3c3e 0b93 e2bd
000001d0: 4a8b ec3e 8c43 563d 1529 c9bd bc18 bb3e
000001e0: 9ff8 9abe d1a3 6e3e acac 6bbe 2f22 2a3e
000001f0: 96ca 34be 67ec 36bf f24f 413c e454 6f3e
00000200: 0460 34be 446b abbe f7c1 e4be 5a57 2f3d
00000210: 8644 ecbc ee5f 2ebd 79d3 95bd 8792 32bd
00000220: e184 d23d 4443 d73d af03 6abe cf20 f23c
00000230: eb1c d8be e2b0 cf3d ac69 f9be 1941 2ebf
00000240: cd0e ec3e e7c1 183f efd0 3cbe 1a7c cc3d
00000250: 9c36 6bbe 61ce 94be e859 7dbe 733e 24bf
00000260: c2ca 80bd d4b8 f03c cb8c 903e 53c8 483f
00000270: 8191 b13e 56a6 acbe da81 18be 84c2 d2be
00000280: 745f 193e 7411 fbbe e06b 273f ad7c 9e3e
00000290: 686f 4d3e 5cba 65bd fd34 0b3f 6673 a73e
000002a0: e516 8abd 9d85 07be 33fb f23d 737f ed3e
000002b0: 4f34 563e 9133 2bbe 2b04 12be 88a9 e6be
000002c0: 8a4b fcbd 8c41 02bf 59f4 b5be fa64 58be
000002d0: fbd8 793e a478 dc3e d386 6e3f 6a92 ef3e
000002e0: 8c03 52be 0edb 96be 90e7 b53e de2b b3be
000002f0: 75de 8fbe cd89 97bd b114 c23d 305e d73d
00000300: 807c 123e 95fa b8be de6d 6dbe 37bf 04be
00000310: a7d3 1e3e 77c5 5abd 5953 0cbe 91dd 83be
00000320: c483 623d 04ef 493e b440 063f 2a2a b63e
00000330: 156e 9d3d 43c6 713e 38bf 873e 117d d43e
00000340: 36f9 7f3f d72f 193e 6fc4 26be c3a5 c4be
00000350: db34 28bf c75d 743e 7b4c c6be 7985 f2bb
00000360: 5bdc be3b 19ad c2be 315a dcbe c3d5 43bf
00000370: 59fb d7bd 0ffc 1f3f 757b 213e 3fb3 54be
00000380: 66a7 b03e 6e21 a5be 18ef 01bf e10b 15be
00000390: 8a63 793e 4d29 c9be 8e16 bd3e 9bbc 843e
000003a0: f594 493e 647d 093f fbef 833d b9dc c33d
000003b0: 4168 033f 9e1d 16bf 4b29 1d3c 0093 213f
000003c0: e14f 14be 4a13 86be 0b50 a13d a621 00bf
000003d0: 5f29 9c3d 7a44 f1bd cd41 b2bd ba8b ecbc
000003e0: 8d5f 63be bd36 bc3e cdcc c3be ef2f 4a3e
000003f0: 3bc5 b23e d43a 2b3f a42e 9dbe e676 b73e

conv.3.bias f4 [30]
0.009097846 -0.049987838 0.04934793 -0.028099699 -0.0010854894 -0.04566057 -0.05395785 -0.03792881
-0.050821804 -0.05983394 0.04138561 0.05870962 -0.036613833 0.054120664 0.007217748 0.05763026
-0.04874658 0.010651525 0.018942313 -0.0533831 0.037991572 -0.014649686 0.039688908 -0.014882381
-0.036856066 0.035089057 0.017156592 0.04035106 0.0021720915 0.03212571
00000000: 220f 153c 0cc0 4cbd 0e21 4a3d 5731 e6bc
00000010: fb46 8eba 9406 3bbd e802 5dbd 3d5b 1bbd
00000020: 862a 50bd 6f14 75bd f583 293d 8079 703d
00000030: 63f8 15bd a1ad 5d3d dc82 ec3b b50d 6c3d
00000040: 7eaa 47bd bc83 2e3c e92c 9b3c 3da8 5abd
00000050: 0d9d 1b3d 3d05 70bc d690 223d 3bd5 73bc
00000060: 63f6 16bd 8bb9 0f3d fb8b 8c3c 2747 253d
00000070: a659 0e3b 4096 033d

mlp_batch_norm.0.weight f4 [32]
1.0 1.0 1.0 1.0 1.0 1.0 1.0 1.0
1.0 1.0 1.0 1.0 1.0 1.0 1.0 1.0
1.0 1.0 1.0 1.0 1.0 1.0 1.0 1.0
1.0 1.0 1.0 1.0 1.0 1.0 1.0 1.0
00000000: 0000 803f 0000 803f 0000 803f 0000 803f
00000010: 0000 803f 0000 803f 0000 803f 0000 803f
00000020: 0000 803f 0000 803f 0000 803f 0000 803f
00000030: 0000 803f 0000 803f 0000 803f 0000 803f
00000040: 0000 803f 0000 803f 0000 803f 0000 803f
00000050: 0000 803f 0000 803f 0000 803f 0000 803f
00000060: 0000 803f 0000 803f 0000 803f 0000 803f
00000070: 0000 803f 0000 803f 0000 803f 0000 803f

mlp_batch_norm.0.bias f4 [32]
0.0 0.0 0.0 0.0 0.0 0.0 0.0 0.0
0.0 0.0 0.0 0.0 0.0 0.0 0.0 0.0
0.0 0.0 0.0 0.0 0.0 0.0 0.0 0.0
0.0 0.0 0.0 0.0 0.0 0.0 0.0 0.0
00000000: 0000 0000 0000 0000 0000 0000 0000 0000
00000010: 0000 0000 0000 0000 0000 0000 0000 0000
00000020: 0000 0000 0000 0000 0000 0000 0000 0000
00000030: 0000 0000 0000 0000 0000 0000 0000 0000
00000040: 0000 0000 0000 0000 0000 0000 0000 0000
00000050: 0000 0000 0000 0000 0000 0000 0000 0000
00000060: 0000 0000 0000 0000 0000 0000 0000 0000
00000070: 0000 0000 0000 0000 0000 0000 0000 0000

mlp_batch_norm.0.running_mean f4 [32]
0.0 0.0 0.0 0.0 0.0 0.0 0.0 0.0
0.0 0.0 0.0 0.0 0.0 0.0 0.0 0.0
0.0 0.0 0.0 0.0 0.0 0.0 0.0 0.0
0.0 0.0 0.0 0.0 0.0 0.0 0.0 0.0
00000000: 0000 0000 0000 0000 0000 0000 0000 0000
00000010: 0000 0000 0000 0000 0000 0000 0000 0000
00000020: 0000 0000 0000 0000 0000 0000 0000 0000
00000030: 0000 0000 0000 0000 0000 0000 0000 0000
00000040: 0000 0000 0000 0000 0000 0000 0000 0000
00000050: 0000 0000 0000 0000 0000 0000 0000 0000
00000060: 0000 0000 0000 0000 0000 0000 0000 0000
00000070: 0000 0000 0000 0000 0000 0000 0000 0000

mlp_batch_norm.0.running_var f4 [32]
1.0 1.0 1.0 1.0 1.0 1.0 1.0 1.0
1.0 1.0 1.0 1.0 1.0 1.0 1.0 1.0
1.0 1.0 1.0 1.0 1.0 1.0 1.0 1.0
1.0 1.0 1.0 1.0 1.0 1.0 1.0 1.0
00000000: 0000 803f 0000 803f 0000 803f 0000 803f
00000010: 0000 803f 0000 803f 0000 803f 0000 803f
00000020: 0000 803f 0000 803f 0000 803f 0000 803f
00000030: 0000 803f 0000 803f 0000 803f 0000 803f
00000040: 0000 803f 0000 803f 0000 803f 0000 803f
00000050: 0000 803f 0000 803f 0000 803f 0000 803f
00000060: 0000 803f 0000 803f 0000 803f 0000 803f
00000070: 0000 803f 0000 803f 0000 803f 0000 803f

mlp.0.weight f4 [32, 30]
0.20067626 1.6538166 0.1936066 -0.3976127 0.30602553 -1.5210264 -1.2077914 0.20745353
-0.484346 -0.02620272 -1.021215 -0.68754756 0.82681227 0.89174175 1.5704793 0.51177496
-0.07884946 -0.38257357 0.26421475 -0.9295257 -0.64396226 -0.31987166 0.26103708 0.55712426
-1.2120041 0.10491561 -0.11228658 -1.1087753 0.80263805 -0.46179512 -0.2721603 -0.83038455
0.7895201 -1.3135114 0.07504102 0.59968996 0.029433673 0.34990087 1.3272117 0.722693
-0.15072502 -0.10893448 -1.8659539 -0.7774854 0.5351699 0.6378927 0.4585896 0.001713106
-0.6846242 -0.60168755 0.16211729 -1.0904022 -0.8350107 -0.60257745 -0.011949842 0.3129525
0.41140914 0.24376208 0.9303954 0.3249389 0.3151454 1.1949604 1.0642829 -0.24412234
-0.61729705 -0.60437346 0.12093394 -0.44927353 1.4100989 0.1943891 0.19656631 -1.3487929
-1.186852 1.4749647 0.7655069 0.2542582 -0.33339313 -0.05687969 -0.20598365 -0.34677097
-0.27214622 0.45541957 1.1745522 -0.6843254 -0.94978935 0.566492 0.3523816 -0.14165851
1.0663074 0.104313225 -0.28181776 -0.89684385 -0.21283092 1.2696644 -0.24039222 0.47144482
-1.4869891 0.45727864 -0.4959975 0.060530115 0.4157126 -0.91174614 -0.19678564 -0.022729678
0.016516509 0.26362926 -1.4682795 -1.4148452 -0.88504165 0.54402936 0.03582211 -0.38423312
-0.47871336 -0.7999762 0.086603 1.8173867 -0.21363942 -0.36955404 0.15922013 0.73752755
-1.0392259 -0.0053576236 0.10597402 0.85450333 -0.38094035 -0.4506336 -1.0130578 -0.0865293
-0.26983824 -0.41991493 -0.40247193 0.26279163 -0.6597208 0.16623151 -0.24799636 0.3516355
-1.1449434 -0.15469275 0.31180346 0.68706006 -1.47223 -0.1319401 -0.12527514 0.1653761
0.3181544 1.448801 -0.5784366 0.43990108 1.5415946 0.38895473 0.3563268 1.3964902
-0.5376717 -0.56670773 0.13883084 -0.6034766 -0.6213998 1.2938534 -1.0915412 0.12755083
-0.26183045 -0.9714786 -0.28076005 -0.5012538 1.436287 -0.51986575 -0.52403635 -0.6075909
0.90878856 0.789103 -0.77683264 0.724969 -0.20727856 -0.13804922 0.8168248 -0.09096256
-0.22925672 -1.5329932 -0.08424346 -0.5058059 0.29512802 -0.08044554 0.7633608 0.15923224
0.06248045 -1.6261631 -0.9587977 1.1222392 -0.6892074 -0.45970884 0.9166567 -0.63752764
-0.40792772 -0.07320183 0.5459782 -0.033880234 0.8004883 0.38751727 -1.75057 0.05770673
-1.097704 0.5300457 0.13512935 -0.82678264 -0.83314544 -0.937654 -0.2546778 -0.46707752
-0.9806116 -0.45108747 0.20087066 0.44336155 -0.14601879 0.72001207 -0.9018899 -0.00906352
-0.12603983 0.047453634 -0.57121897 0.42309546 -1.9401114 0.6095145 -2.0786567 6.5275985e-05
-0.0026769026 -0.2563588 0.64157087 -0.55012435 0.9677773 0.5595101 -0.78356475 0.16057183
-0.72562516 0.48610055 0.14233248 0.069213815 -0.27405038 -1.1504456 -0.44632462 0.009767084
0.2247398 0.777731 -0.8063974 0.42672348 -0.73616403 1.1912215 0.7365426 -0.3805782
0.09221751 1.1436398 -0.083808385 0.26685628 -0.7384535 -0.50449055 0.14289628 -0.3346342
00000000: 147e 4d3e 43b0 d33f cf40 463e e493 cbbe
00000010: 61af 9c3e feb0 c2bf e998 9abf b36e 543e
00000020: 33fc f7be 16a7 d6bc 2cb7 82bf 1e03 30bf
00000030: f8a9 533f 3049 643f 7705 c93f af03 033f
00000040: d37b a1bd afe0 c3be 2847 873e 65f5 6dbf
00000050: b6da 24bf 38c6 a3be a7a6 853e b29f 0e3f
00000060: f322 9bbf ffdd d63d 82f6 e5bd 59ec 8dbf
00000070: b079 4d3f 6970 ecbe 9858 8bbe 1594 54bf
00000080: fd1d 4a3f 2421 a8bf 1baf 993d 4885 193f
00000090: e31e f13c 3526 b33e 13e2 a93f 6902 393f
000000a0: a957 1abe 0a19 dfbd 94d7 eebf 4809 47bf
000000b0: e500 093f f04c 233f 42cc ea3e 4c8a e03a
000000c0: 8843 2fbf 3208 1abf 1302 263e 4d92 8bbf
000000d0: 43c3 55bf 8442 1abf 45c9 43bc 4f3b a03e
000000e0: 38a4 d23e c49c 793e 652e 6e3f 645e a63e
000000f0: bd5a a13e 76f4 983f 6c3a 883f 35fb 79be
00000100: 2e07 1ebf 38b8 1abf 37ac f73d 2e07 e6be
00000110: 1f7e b43f f00d 473e ae48 493e 3fa5 acbf
00000120: c4ea 97bf a5cb bc3f 43f8 433f 212e 823e
00000130: 81b2 aabe aefa 68bd 61ed 52be f78b b1be
00000140: c056 8bbe c12c e93e ba57 963f f32f 2fbf
00000150: 6525 73bf 9f05 113f 5c6b b43e ee0e 11be
00000160: c37c 883f 2ca2 d53d 6b4a 90be 8f97 65bf
00000170: 59f0 59be 5d84 a23f 6129 76be 3761 f13e
00000180: a955 bebf 6d20 ea3e 62f3 fdbe 6dee 773d
00000190: 48d8 d43e 3268 69bf 2d82 49be 9733 babc
000001a0: a14d 873c 6afa 863e 95f0 bbbf a619 b5bf
000001b0: 1792 62bf 8245 0b3f 34ba 123d 34ba c4be
000001c0: eb19 f5be 3ecb 4cbf ea5c b13d 21a0 e83f
000001d0: 4bc4 5abe 3036 bdbe 9a0a 233e 9bce 3c3f
000001e0: 5b05 85bf 018f afbb e808 d93d bbc0 5a3f
000001f0: 9d0a c3be 72b9 e6be e1ab 81bf 4636 b1bd
00000200: 3d28 8abe 17ff d6be cd10 cebe a08c 863e
00000210: 76e3 28bf 9838 2a3e c2f2 7dbe 9109 b43e
00000220: 818d 92bf c767 1ebe b4a4 9f3e 2be3 2f3f
00000230: 0872 bcbf 4e1b 07be 2048 00be 5a58 293e
00000240: 22e5 a23e 5072 b93f 6c14 14bf b73a e13e
00000250: f952 c53f 1325 c73e 7770 b63e 31c0 b23f
00000260: daa4 09bf c213 11bf ac29 0e3e 717d 1abf
00000270: 0f14 1fbf fd9c a53f 9fb7 8bbf af9c 023e
00000280: a40e 86be d2b2 78bf c8bf 8fbe 2b52 00bf
00000290: 41d8 b73f ec15 05bf 3f27 06bf 148b 1bbf
000002a0: 5ea6 683f a702 4a3f 81de 46bf 9297 393f
000002b0: d540 54be c65c 0dbe 6e1b 513f 944a babd
000002c0: 46c2 6abe 1f39 c4bf d687 acbd 7f7c 01bf
000002d0: 051b 973e a2c0 a4bd 9d6b 433f c70d 233e
000002e0: 80eb 7f3d 1d26 d0bf c473 75bf 89a5 8f3f
000002f0: e56f 30bf f55e ebbe 03aa 6a3f 0335 23bf
00000300: e7db d0be d7ea 95bd 3ac5 0b3f 00c6 0abd
00000310: cdec 4c3f aa68 c63e ae12 e0bf e45d 6c3d
00000320: 9181 8cbf 13b1 073f 595f 0a3e 07a8 53bf
00000330: 0549 55bf 180a 70bf 2165 82be c924 efbe
00000340: 5d09 7bbf f0f4 e6be 0ab1 4d3e 4900 e33e
00000350: f385 15be b652 383f 42e2 66bf 287f 14bc
00000360: 9610 01be be5e 423d 683b 12bf f89f d83e
00000370: 9255 f8bf 2409 1c3f b608 05c0 c7e4 8838
00000380: f96e 2fbb 7641 83be fd3d 243f f3d4 0cbf
00000390: 41c0 773f 0e3c 0f3f b397 48bf f16c 243e
000003a0: 92c2 39bf 2ce2 f83e 9bbf 113e f9bf 8d3d
000003b0: 5550 8cbe cd41 93bf a984 e4be 1f06 203c
000003c0: 3122 663e 6119 473f 0f70 4ebf 807b da3e
000003d0: 3f75 3cbf f279 983f 0e8e 3c3f 25db c2be
000003e0: 89dc bc3d ca62 923f bba3 abbd 63a1 883e
000003f0: 4a0b 3dbf 4b26 01bf 6753 123e 2d55 abbe

mlp.0.bias f4 [32]
0.021941533 0.003932763 -0.13011603 0.07767684 -0.085472636 -0.10100004 -0.17648184 0.04867374
0.12974203 -0.10606238 -0.004588859 0.00439458 0.019214578 0.13308577 -0.003591346 0.16504686
0.048313152 0.06420857 0.015304885 0.07185214 0.123682484 -0.13388528 0.07375634 -0.17255607
-0.1197739 0.0014121316 0.010557948 0.067162186 0.017409116 0.07410213 0.08263001 -0.0125830695
00000000: bbbe b33c 68de 803b 233d 05be 0915 9f3d
00000010: 470c afbd 1cd9 cebd a8b7 34be 1e5e 473d
00000020: 18db 043e 3c37 d9bd 245e 96bb 6900 903b
00000030: e467 9d3c a347 083e ca5c 6bbb 0b02 293e
00000040: 03e4 453d c87f 833d 57c1 7a3c 3727 933d
00000050: 3e4d fd3d 3919 09be 900d 973d 8ab2 30be
00000060: 054c f5bd 4617 b93a 3efb 2c3c 548c 893d
00000070: 909d 8e3c dcc2 973d ec39 a93d 3829 4ebc
