ece324-hw4/MyBestSmall.pt (torch, 16655 bytes, 12 tensors)

conv.0.weight f4 [10, 3, 3, 3]
00000000: fec5 16be d1a7 853d c967 8ebe f9f0 cabe
00000010: 7a09 e4bd 4726 c43d b678 26be 9859 943d
00000020: 9771 85bd 9463 1abe 43be 23be bed1 60be
00000030: 2023 9bbe 3e10 4dbd 3526 2a3d 0384 d83d
00000040: 69c5 803e 1f99 a83e 4f94 9dbe b046 1fbe
00000050: 1387 9fbd e53a d73d c4ea aa3d 422d a73e
00000060: cd97 173e db4f 8b3e a4c1 ef3e 817e babe
00000070: 0da1 dc3d cc1d 7a3e be48 84be fc0e 24bd
00000080: 7069 2abd 1e90 463d f541 a4be 2927 acbe
00000090: cd08 13be 4f27 e53e 6851 b33e b23e 9b3d
000000a0: 46f3 94bd 3a3b 08bc f9e5 853e fa2b 7dbe
000000b0: 4ed9 84be 0427 72be eb66 903e cc76 763e
000000c0: 7177 39be 0a7b 26be 6a3a ea3d 877a a53e
000000d0: b2b2 97bd 25f6 20be 5878 863e 583e 51bd
000000e0: aae4 6f3d c461 96be cfe8 80be 034a a43a
000000f0: c8ac 833d 536a e5bb af5b 08be fc35 ac3e
00000100: 4bf7 c43e e102 873e 897e c4bd 0f71 1e3d
00000110: a915 a33e cfc2 4f3d 4537 97be 5bbd ecbd
00000120: b887 a93e 9cdf de3e 8098 f43e 7c01 b63c
00000130: 1ce8 b2bc 9224 963b 0a1d 8abe b943 c3be
00000140: 61eb adbe 784f b13e 1cf6 9a3e de20 6fbe
00000150: 728b c23d 8aa6 153d 2b19 7cbd f581 40bd
00000160: 7907 543e 584d d6bd e06a 013e 700f ff3c
00000170: 0720 42be 55d4 783c 5fbf a7be 1c7b debe
00000180: 20de 493d 7a80 51bd bda3 e1be c86a 113e
00000190: d2f3 813e d5e3 12bd b068 1c3e 22eb 503d
000001a0: ae4a 87be 9a4c a03e 1329 a33d d5e1 eebd
000001b0: d820 efbd 0bdd 993c 70cd 073f 4580 513e
000001c0: 79f4 abbe 249a e93e 6308 a83e 9310 79be
000001d0: 4478 bc3d 64f8 9bbe d598 99be bf72 2e3e
000001e0: b072 5dbd a9ad f5be 13e2 41be b68c fc3d
000001f0: 6b89 00bf dbcc 88be bd46 d3bc d485 05be
00000200: 0732 8b3e 210e ae3c a934 76be ff10 2b3e
00000210: e900 703e bba1 063c a2a9 803e 53aa 033d
00000220: e13a f43d 47c9 c03d 9eb9 933e b1c9 d03e
00000230: 5e30 ab3e 3172 a03e cc49 333e 0404 913e
00000240: 74ab 0bbf a084 00bf a405 96be 0c9f 82be
00000250: d3cd d8be 9b65 16bf e244 e7be 9733 28bf
00000260: eb8f 88be 9ad8 b93e 055e 673e 4271 0abe
00000270: 76a3 e13e a958 9b3c c636 81bc c8eb 733e
00000280: dfcf bdbb 1733 3d3e 067c 0cbe 1b52 2abd
00000290: 16be 7e3e e826 3ebe 4d35 b8bd b9bb 0f3e
000002a0: e359 9fbe 5780 9abd 7e59 ac3e ac37 d1be
000002b0: 6438 e53d d7f0 973e c4f8 08bf c449 943d
000002c0: 52ff 0e3e fc1e 8cbe 6381 fd3d 8688 1a3e
000002d0: cd95 57be 4623 6cbd 802d b43e 28bc 40be
000002e0: 0f2b fa3d a8f3 873e e0d3 9ebd 96c9 8c3d
000002f0: e53f 733e 48b4 473e 2ba1 823e c7bc 9a3e
00000300: c79f 1ebe 749b 98bd df85 5cbd 12a9 7abe
00000310: 58a2 ebbd 792b 603b 5efb e8bd 39d7 13bd
00000320: 4e9f 82bd 72b4 663d c65f a9be 2755 7dbe
00000330: 45cc 43be 2a7c de3d 2973 64be 90bc 453e
00000340: 1bb2 b83d 1554 713d c0cb 8d39 33b2 d8bd
00000350: 4b63 463d 31cb 6ebc 7209 ea3d 8193 5f3d
00000360: bb12 80be 4b34 e83c 58d9 b23e 95fc 43be
00000370: 8878 013e 5d15 c33e dcc1 293e 2301 a83e
00000380: 85e0 a13d e68e 07be cf44 68be 1128 51be
00000390: 725d 20be 47ec e0bc 57be 48bd 7c2d 6e3e
000003a0: 5d1d 8e3e cee6 8c3e f694 08be ce48 81be
000003b0: e265 afbd 0feb 89be 97e0 06be 965d 06bd
000003c0: 93c9 9f3d 317b a53e 2a97 45bc 286f 7c3e
000003d0: 6b02 d43e 679c 073e 109c 433e 465f 283d
000003e0: fb36 663e 6ec4 8bbd a70f cdbc fc4f c3bd
000003f0: b84e 8b3d 5e3b 8839 cdcb f5bc 1bc7 d0be
-0.14723966 0.06526149 -0.27813557 -0.39636973 -0.1113462 0.09577613 -0.16256985 0.07243651
-0.06515806 -0.15077049 -0.15990548 -0.2195501 -0.30300236 -0.050064318 0.041540343 0.10572054
0.25150612 0.32929322 -0.30777213 -0.15554309 -0.07789435 0.1050928 0.08345559 0.32651716
0.14804001 0.27209362 0.46827424 -0.3642464 0.107729055 0.24425429 -0.25836748 -0.040053353
-0.04160446 0.048477285 -0.3208157 -0.33623627 -0.14358826 0.44756553 0.35023046 0.075803176
-0.07272963 -0.008314902 0.26152018 -0.24723807 -0.2594704 -0.23647696 0.2820352 0.24068755
-0.1811197 -0.16257873 0.11436923 0.32320043 -0.0740713 -0.15718897 0.2626369 -0.051084846
0.05856768 -0.29371464 -0.2517762 0.0012534264 0.0642944 -0.0070012 -0.13316225 0.33634937
0.3846992 0.26369384 -0.09594447 0.03868204 0.31852463 0.050722893 -0.29534355 -0.11559554
0.33111358 0.43529975 0.47772598 0.022217505 -0.021839194 0.0045819962 -0.2697528 -0.38137606
-0.33968642 0.34630942 0.30265892 -0.23352382 0.09499253 0.036535777 -0.06154744 -0.046998937
0.20705976 -0.10463971 0.12638426 0.03113529 -0.1895753 0.015187343 -0.32763192 -0.434533
0.0492841 -0.051147915 -0.44070235 0.1420089 0.25381333 -0.03586181 0.1527431 0.05100549
-0.26424164 0.31308442 0.07966819 -0.11664168 -0.11676186 0.01878216 0.5304785 0.20459087
-0.33584955 0.45625412 0.328189 -0.24322729 0.09202626 -0.30462945 -0.29999414 0.1703596
-0.054064453 -0.47984055 -0.18933897 0.12331526 -0.50209683 -0.26718792 -0.025790567 -0.13039333
0.27186605 0.021246972 -0.24043526 0.16705702 0.23437847 0.0082172705 0.2512942 0.032144856
0.11925293 0.094133906 0.28852552 0.40778878 0.3343534 0.3133712 0.1750862 0.28323376
-0.5455849 -0.5020237 -0.29301178 -0.25511968 -0.4234453 -0.5874879 -0.4516974 -0.6570372
-0.266723 0.36298066 0.2259446 -0.13519767 0.44070023 0.018963175 -0.015773188 0.23820412
-0.0057926024 0.1847652 -0.13719186 -0.041582208 0.248772 -0.18569529 -0.08994541 0.14036454
-0.31123266 -0.0754401 0.33662027 -0.40862787 0.11192396 0.29675934 -0.53504586 0.07240632
0.13964584 -0.2736739 0.12378194 0.15091142 -0.21053238 -0.057650827 0.35190964 -0.18821776
0.12215244 0.26553082 -0.07755256 0.06874387 0.23754843 0.19502366 0.25513586 0.3022215
-0.15490638 -0.07451525 -0.053838607 -0.24478558 -0.11505574 0.00342056 -0.113760695 -0.036093924
-0.06378041 0.05632443 -0.33080882 -0.24739514 -0.19120891 0.10863526 -0.22309555 0.19310212
0.09018346 0.058918077 0.0002704542 -0.10580864 0.048434537 -0.014574812 0.11427583 0.05458403
-0.2501429 0.028345248 0.34931445 -0.19139321 0.12643635 0.38102236 0.16577858 0.32813367
0.07904152 -0.13238105 -0.22682498 -0.2042544 -0.15660647 -0.027456416 -0.049009647 0.23259538
0.27756777 0.2751984 -0.13338074 -0.25250858 -0.085643545 -0.26937148 -0.13171612 -0.032804094
0.07802119 0.3232055 -0.012059966 0.24651778 0.41408095 0.13243257 0.19102502 0.041106485
0.22481911 -0.06824575 -0.025031878 -0.0953674 0.06802124 0.00025984173 -0.030004406 -0.40776905

conv.0.bias f4 [10]
00000000: 4ec1 9cbe cf88 cebe ee54 37be 96e0 8c3d
00000010: 2037 0abe d550 183c 645d e7bd 9226 45be
00000020: f424 9cbe 971b c03d
-0.3061623 -0.40338752 -0.17903492 0.06878774 -0.13497591 0.009296616 -0.1129711 -0.19252995
-0.30496943 0.09380262

conv.1.weight f4 [10, 10, 3, 3]
00000000: f728 053e c31a 9fbd b501 91be a5e9 a13d
00000010: e441 04be 30ae 03bd 9e92 c0bd 5b03 2fbc
00000020: 8c95 d33b 7ecc d33d bb7f f9bd a4d0 4b3b
00000030: 77b1 263e 7222 e43a ab2a 10be cd0e 31be
00000040: 3c6f f2bd 74e9 50be 9132 48be da94 83be
00000050: 86f5 d3bd ab43 a93d 5e21 7dbe 65cc 61be
00000060: 2d9e 443e 0266 3dbe 90a3 96be 3992 513c
00000070: dcfc 21be 1098 0e3d 481c 4a3e d2dc d83d
00000080: baf9 c63d 6c29 653c e12e 0b3e b292 51b9
00000090: b534 853d b851 a73d eb3e 903e 83d2 933d
000000a0: d8ba 063d 6534 b2bd 4f4b 26be 6233 003d
000000b0: 069a 0dbe ffcd 783e 710a 9b3e 2bc7 5b3e
000000c0: fa5b 07bc 7830 1abc 32ed 013c 34d8 a3be
000000d0: fc2d 023e b9ec c73d 070a c0bc 8ec1 9e3d
000000e0: 3791 973e 8522 84bd 2c61 cfbb e1da 293e
000000f0: 096b 26be 2189 31bd d4c1 9d3c 74cb 733b
00000100: 80bf 38be cbcd b03d a985 d03d df4b 743d
00000110: fd1e 54be 8dd7 613d d3ec 86bd e246 b63b
00000120: 39a3 2c3b aebc 563e 26a0 d4ba 3eed 843d
00000130: 7834 08be 215a 9e3d 6596 dc3d 8d7d 07bd
00000140: c736 3dbe 8c18 44be 9cf7 6abc 86f8 613e
00000150: c4f5 0abe 77fc 363e 36d1 603e 4174 bebe
00000160: cac1 60be 071b 18be a5ca f1bd 40c3 65bb
00000170: b10f 75bc c096 b2bd 355a 45bd c5a2 87bd
00000180: bf82 a5bd 971f 663c 5c7d 263d 4f31 883e
00000190: 99d1 8a3d bdd2 15be a53b df3d 8d8e 803e
000001a0: 61ef b2bd 7226 e53c d1ca 03be abee 1ebe
000001b0: 5c33 bc3a 2bc0 1abe 2ec9 ebbd d096 56bd
000001c0: efc5 8fbd e499 54be 03a6 123d c704 393e
000001d0: 605a d53d 2a74 cfbd ac0c 06be 7ea2 b9bb
000001e0: c5ee bf3d 97b6 543b 6aab a1bc e564 953d
000001f0: 86b9 323b 9449 d1be 403c 94bc 6e0f 4d3e
00000200: bdef 26ba 700a 023e 48d4 c7bd 1436 573e
00000210: 7b93 283d 7eac d43c 476a 46be d4c1 01be
00000220: 0cff 9e3d ac81 8c3e 5097 d9bc 0685 d6bd
00000230: d17a 48bd 3ea7 9d3e f9ae ba3e ae5b b33d
00000240: 8b12 4f3b ca42 323e 82c6 e13c 6e01 73bd
00000250: e33a b5bd 74d5 af3c 79ff 9dbd 3e45 123d
00000260: 8c0a 32be 7fea fe3d 9066 803d 8ce6 ebbd
00000270: 2201 46bc 933a 8e3d 770e 263e 5a66 9a3d
00000280: 89b7 e0bd be2f 83be b14f efbd 1b54 c23c
00000290: 8523 8bbd 3ca0 0e3e bef5 5e3d 2d1a ed3d
000002a0: 6de7 7dbe b0a8 1abe a939 2fbd e887 d73d
000002b0: 34cf 803e 85a0 32be d446 d4bc 6c1c 753e
000002c0: 6a80 0f3e 701e e93e 8bf8 f83c 29e7 5bbe
000002d0: 51a0 cbbd 2dcc a8bd ad40 c7bd c74d b3bd
000002e0: eca4 17bb d3d0 41bd 926e e33d 195f 8bbd
000002f0: 57d1 55bd b07d fbbd bec1 8e3d 4cbe aa3d
00000300: 1cb6 bb3d 0e3a aebb 65e6 083e ee5e 8abd
00000310: 26e7 73be 2233 9bbc d6e2 033e 7c5e 703d
00000320: 7c30 a9be 79cf 7a3d 41b1 acbe 3ea5 91be
00000330: ad63 11bd 3eba f0bd 1211 94be 83a4 9d3d
00000340: 0b88 81bb 0617 b83d 5bce 95bd b92a a93d
00000350: deca 0c3e c7da 37bc c195 7b3e f4fd 903e
00000360: d682 883d a456 583c eb8b d13e 480b 7c3d
00000370: c60a 1bbe 8184 823e 585f c43d 8b73 3c3d
00000380: 998a 823b 7fc0 4fbe 0568 e2bc 172e 03be
00000390: 8369 69be 248e 5fbd 4931 efbb d2cf 96bd
000003a0: 41a0 24bb f8f9 2e3e bee6 773e 9e76 e83d
000003b0: 52f6 9f3d 080a 323e 1c49 6f3d f5be 843d
000003c0: 0a4b 073e 7935 8d3e ca69 bb3d 02c4 1dbe
000003d0: 0ff8 3bbe 005f 5dbd cdb6 8c3d 525f 91bd
000003e0: 749f dc3c 3322 94bc 3ea3 273e daf4 ce3d
000003f0: 3644 7bbe 43c4 22be c52b 1bbe 5e28 a8bd
0.13003908 -0.07768776 -0.28321615 0.07905892 -0.1291576 -0.03214854 -0.09402965 -0.010681952
0.0064570364 0.10341738 -0.12182566 0.0031099701 0.16278635 0.0017405285 -0.14078777 -0.17290802
-0.118376225 -0.20401555 -0.1955054 -0.25699502 -0.10349564 0.0826486 -0.2471976 -0.22050627
0.19200964 -0.18495944 -0.29421663 0.01279121 -0.15819114 0.034812987 0.19737351 0.10588993
0.097156 0.0139869265 0.13592102 -0.00019986441 0.06504194 0.081698835 0.28173003 0.07217886
0.03289303 -0.087014 -0.16239665 0.031299002 -0.13828287 0.24297331 0.30281404 0.21462695
-0.008261675 -0.00941097 0.007930087 -0.32000887 0.12712854 0.09761948 -0.023442281 0.077517614
0.29602978 -0.064518966 -0.0063287225 0.16587402 -0.16251768 -0.043343667 0.019257464 0.0037200125
-0.18041801 0.08633002 0.10181744 0.05964267 -0.20714946 0.055137206 -0.065881394 0.005562649
0.0026342405 0.20970413 -0.0016222044 0.06490563 -0.13301265 0.077320345 0.10770873 -0.03307872
-0.18477927 -0.19149989 -0.014341261 0.2206746 -0.13570315 0.17869745 0.21954808 -0.3719807
-0.21948925 -0.1485406 -0.118062295 -0.0035059005 -0.014957354 -0.087201595 -0.04818173 -0.06622843
-0.080815785 0.014045618 0.040646896 0.2660012 0.06778259 -0.14631172 0.10900048 0.25108758
-0.08737064 0.027972434 -0.12870337 -0.15520732 0.0014358568 -0.15112369 -0.11512981 -0.05238992
-0.07020175 -0.2076183 0.035802852 0.18068229 0.10417628 -0.101295784 -0.13090771 -0.0056651225
0.093717135 0.0032457465 -0.019735057 0.07294635 0.0027271225 -0.40876448 -0.018095136 0.20025417
-0.0006368121 0.12699294 -0.09757286 0.21016723 0.041156273 0.025961157 -0.19376479 -0.12671596
0.0776349 0.27442682 -0.02656141 -0.10474591 -0.04894525 0.30791658 0.3646162 0.08757721
0.0031596746 0.1740829 0.027560476 -0.059327535 -0.088491224 0.021464087 -0.07714743 0.035710566
-0.17386836 0.1244707 0.06269562 -0.11518583 -0.012085231 0.06944766 0.16216455 0.07539053
-0.109725066 -0.25622362 -0.11685122 0.023721745 -0.06793884 0.13928312 0.054433577 0.11577258
-0.24795313 -0.15103412 -0.0427796 0.10523969 0.25158083 -0.17444046 -0.02591268 0.23936623
0.1401383 0.45531034 0.030391952 -0.214749 -0.09942687 -0.082420684 -0.09729133 -0.08755069
-0.0023139073 -0.04731829 0.11105074 -0.06805248 -0.052201595 -0.12279832 0.06970547 0.083370775
0.09165594 -0.0053169793 0.13369139 -0.06756388 -0.23818645 -0.01894528 0.128795 0.058683857
-0.33044803 0.061233018 -0.33728984 -0.28446382 -0.03549545 -0.11754273 -0.28919274 0.07697394
-0.003952985 0.08988766 -0.0731475 0.08260102 0.13749263 -0.011221594 0.24568845 0.2831875
0.0666558 0.0132042505 0.4092706 0.061534196 -0.15140828 0.25491717 0.09588498 0.046008628
0.0039838073 -0.20288275 -0.027637491 -0.1281055 -0.22794156 -0.054578915 -0.0072995764 -0.07363857
-0.0025119933 0.17087543 0.24209115 0.113507494 0.07810654 0.17386639 0.058419332 0.06481735
0.13212219 0.2757986 0.09151037 -0.15406802 -0.18356346 -0.054045677 0.06870804 -0.07098259
0.026931502 -0.018082714 0.16370866 0.101052955 -0.24537739 -0.1589518 -0.15153416 -0.082108244

conv.1.bias f4 [10]
00000000: 7dcc 8b3e be4a a2bd 42cc 523d b45b 3ebe
00000010: 9333 a2bd 9711 61ba 2db1 6d3e 9acd 2f3f
00000020: 9cee a83d 0d09 a4bd
0.2730445 -0.07924412 0.051464327 -0.1858967 -0.07919993 -0.000858569 0.23212118 0.686731
0.08248636 -0.08009539

conv.2.weight f4 [10, 10, 3, 3]
00000000: a180 edbd 8006 083e 2586 7b3e 84f8 003d
00000010: 0232 b03d 503a b7bc f3f6 8cbd 6ad7 bbbe
00000020: 9cc3 a3be 191b 3b3e 5ef2 303e bbbf 433e
00000030: 6813 533d fd41 083d 75b9 57be 54e0 d8be
00000040: fad1 edbe 45e2 0fbe d475 59bd 7d66 7cbe
00000050: e680 81bc d2d9 1abe 550a 24be 1315 bfbe
00000060: af39 9dbe 8039 c0bd 66e3 b43d 5c4e fc3d
00000070: 9a33 da3d a804 7b3e 7ea8 b83b 1429 b73d
00000080: 867c 2dbd 329a 4d3d 93a7 0ebd 721f ba3c
00000090: 3ff6 8abc b774 b93d ec2e 463e 500a f4bc
000000a0: 419a 87bd fa49 e03d 1da9 90be 1943 04bf
000000b0: 6435 0dbe 01eb 1cbd b923 623e 5b79 973e
000000c0: 45e9 fe3d 9934 bbbd 2b78 193e 9f53 71be
000000d0: f9b2 c3bd 7830 c4bd e523 043e bd39 a1bd
000000e0: ebfc 5dbc 91b5 323e 3a04 7b3e 006a fd3d
000000f0: b17b 233e 0d27 6b3e 8916 aa3e ae08 01bf
00000100: 280d cabe b6b5 9ebe bc9c b0bd 3a26 f6bd
00000110: aae5 a93d c606 d73e 014e be3e 9085 853e
00000120: 910a 8b3e 038e 38bd 623f 5f3e ada1 febc
00000130: be00 c93d 89d2 393e 9067 6dbe 114e 81be
00000140: 23d4 153e 8e66 b63d 0ea8 bfbd ea1d 82bd
00000150: 743c fdbc 803d 50bd 577f ac3d 1a4d 093d
00000160: 6504 693d 14e7 d23d b084 b4be 43a4 b0be
00000170: 1135 67be 059e d73d 89ae 6e3d 2a56 263e
00000180: 5c34 3d3c cc79 303e 3751 d43c 3e14 59be
00000190: 1391 543d 01ca 673e 18ee 64be 717b e93c
000001a0: f820 1c3e e8d8 14be f12f 053d 7b03 df3d
000001b0: 3012 b2be d6a7 f6be 2bae 11be 7df6 5ebd
000001c0: 6abf 993d d4cb a73d 0265 c53d 16c1 9c3e
000001d0: c877 d0bd 66f3 f7bc 3dc8 893d 6c21 333d
000001e0: 3577 233d 7140 22bd 2d44 a43d 64d6 b63c
000001f0: bb77 adbd 1f9a 463e 3c5b 8d3d 5b5d 14bd
00000200: 4012 f43d 786f 813d f765 273d ec13 83bd
00000210: ab6d acbe 8dcb 06be b279 98bb bae1 90bd
00000220: 8ff8 ccbc d833 d9bd 1e98 86be 352b 55be
00000230: cbbd 0abe a714 803d 4004 c93e 1275 6abc
00000240: d54d f3bd 59bc cebd 31e4 0cbe ad40 b2bd
00000250: b9a8 fcbd 7671 73bd 098f 81be 148e 82bd
00000260: 3520 3e3e 77d6 573c b0f2 163d 88e3 17be
00000270: 919e 4fbd fe17 a1bc 95e6 8ebc bf39 293d
00000280: af39 8b3d 34a6 7c3e ef47 003e 36ca 4ebd
00000290: 2171 5b3d 0b04 cd3d 182b 2bbe 4253 5abd
000002a0: 7ef5 963d 40d9 a33d 597e 7c3e 9b66 d03d
000002b0: 7940 86bd 23d8 8b3d e19f 3b3d 4f0e 703d
000002c0: 1822 623d 5919 28bd 1c08 b5bd a507 ba3d
000002d0: cdbe 99bd 1c58 9c3d 418d 5fbc bb4d cfbd
000002e0: fd5a e0bd ad93 9cbd eb85 69bd b412 87bc
000002f0: 7491 e8bc 9f9f 81be 4c12 cbbd 6bfe 99bc
00000300: 76ee cdbd 152f bc3d c274 913e 646a 1e3e
00000310: 99b1 b3bd ef5e 5cbd 7f70 2c3e 81cb d83d
00000320: 4841 763e e456 3f3e 8d80 e23d ada5 063e
00000330: 6275 30be 448f 123c bf78 26be 3baf d6bb
00000340: 16ed 23bd 2bfa 11be ea43 6d3d bfcd e2bd
00000350: ed72 ba3c 1e82 593e 1d3b 3a3d d340 11bd
00000360: abc6 e03d fa19 0dbe dc59 493b f6fd 83be
00000370: cde0 77be 87bd 06be 3560 af3d 7e0f 6c3e
00000380: 3b30 903e 12f0 53bd aeaa 1abe 068f aabe
00000390: 4e79 683d 6c25 553a 9335 cabc 54ce 6e3d
000003a0: 110b 203d 8c9c abbd f7e8 87be ca72 1cbe
000003b0: fe4c 9cbe 5a39 96be 23b7 4dbe 1c28 583e
000003c0: a99c 8f3e ebdf 8e3e a443 a33d 9e3e cdbd
000003d0: 2546 a5bd 406d 73be 99eb 44be f104 18bd
000003e0: de84 dcbd 5419 6cbe ae8b 2ebe f74f 3cbe
000003f0: c313 2e3e 80df 9bbd 3d5e 01bc 4714 f83d
-0.115968 0.1328373 0.24562891 0.031487003 0.08603288 -0.022366673 -0.06883039 -0.36687785
-0.31985176 0.18272056 0.17279956 0.19116108 0.05153218 0.033266056 -0.2106684 -0.4235865
-0.46449262 -0.14051159 -0.053090885 -0.24648471 -0.015808534 -0.15122154 -0.16019566 -0.37320766
-0.30708072 -0.09385967 0.08832435 0.12319633 0.106543735 0.24513495 0.00563532 0.08943382
-0.042355083 0.05019588 -0.03482778 0.022720072 -0.016963122 0.09055465 0.19353837 -0.029790074
-0.066212185 0.1095161 -0.28254023 -0.5166488 -0.13789898 -0.038310055 0.2208394 0.29584774
0.124468364 -0.091408916 0.14987247 -0.23567055 -0.09555621 -0.09579557 0.12904318 -0.07872341
-0.01354907 0.17452075 0.24513331 0.123737335 0.15965153 0.22964115 0.33220318 -0.5040387
-0.39463162 -0.3099801 -0.08623645 -0.1201901 0.08295758 0.41997355 0.37168887 0.26078463
0.271565 -0.045057308 0.21801522 -0.031082952 0.09814595 0.18146719 -0.23184037 -0.25254872
0.14631705 0.089062795 -0.09358226 -0.06353362 -0.030912615 -0.0508399 0.08422726 0.033520795
0.056888957 0.10297981 -0.35257483 -0.34500322 -0.22578837 0.10528187 0.05827192 0.16243806
0.011548128 0.17233962 0.025917633 -0.21199128 0.051896166 0.22635652 -0.2235645 0.028501244
0.15246952 -0.14535868 0.032516424 0.10889336 -0.347795 -0.48174924 -0.14226596 -0.05443429
0.075072125 0.08193174 0.09638406 0.30616063 -0.101790965 -0.030267429 0.067276455 0.043733045
0.039908607 -0.039612237 0.08020816 0.022319026 -0.084701024 0.1939473 0.06902167 -0.036221843
0.119175434 0.06320089 0.040868726 -0.06400284 -0.3367742 -0.13163586 -0.004653179 -0.07074304
-0.025020866 -0.106055915 -0.2628793 -0.20817263 -0.13548963 0.06253939 0.39261055 -0.014310138
-0.1188008 -0.10094518 -0.13758923 -0.08703742 -0.12336869 -0.059434377 -0.2530444 -0.063747555
0.18566974 0.013173691 0.03685254 -0.1483289 -0.05068833 -0.01966476 -0.017443934 0.041314837
0.06798112 0.24672776 0.1252744 -0.050485812 0.053574685 0.10010537 -0.16715658 -0.053302057
0.07371043 0.080004215 0.24657573 0.101758204 -0.06555266 0.06828334 0.04580677 0.058607396
0.055208296 -0.0410398 -0.08839437 0.09083489 -0.075070955 0.07633993 -0.013644517 -0.10122248
-0.10954855 -0.076453544 -0.05701248 -0.01648841 -0.02838967 -0.25317094 -0.09915599 -0.018798074
-0.100552484 0.09188668 0.28409392 0.15470272 -0.087741084 -0.053801473 0.16839789 0.1058569
0.2404834 0.1868549 0.11059675 0.13149138 -0.17232278 0.00894529 -0.16256998 -0.006551651
-0.040021025 -0.14255588 0.057926096 -0.11074399 0.022759879 0.21241042 0.04546653 -0.03546221
0.10975393 -0.1377944 0.0030723726 -0.25779694 -0.24206848 -0.13158236 0.08563272 0.23052785
0.28161797 -0.05174262 -0.15104172 -0.33312243 0.05675631 0.00081308815 -0.02468375 0.05830224
0.039073054 -0.08379468 -0.26544926 -0.15278164 -0.3052749 -0.2934063 -0.20089392 0.2110905
0.2804921 0.2790521 0.07971886 -0.10021709 -0.0807002 -0.23772144 -0.19230498 -0.037114087
-0.1076753 -0.23056537 -0.17045471 -0.18389879 0.16999726 -0.076109886 -0.007896003 0.121132426

conv.2.bias f4 [10]
00000000: 5bf5 8e3c 0648 233e d78c 83be be9c 79be
00000010: 98aa 38be 516f 98be f1dd d7bd c2a8 1d3e
00000020: 9817 0bbe cff8 ebbe
0.017450979 0.15945444 -0.2569339 -0.24376199 -0.18033826 -0.29772428 -0.10540379 0.15396407
-0.13583219 -0.46088263

conv.3.weight f4 [10, 10, 3, 3]
00000000: 7633 a7be 8f93 bcbd df60 c43e c316 2bbe
00000010: fa4d 3ebe c4ce 853e ad3e 46be 99b0 dd3d
00000020: a8de 683d b24b 773c aba4 96bc 4d3c 113e
00000030: 08a7 1a3d cc7e 503d 7aa7 02be 27ad 78be
00000040: 659e 46bb 9923 89bd d988 a939 bbdc 89bc
00000050: fac6 a1bd b178 febc 60d5 dbbd e60d 0dbe
00000060: 1aa6 bfbc 692b c3bd 2326 c1bd b3e6 91bd
00000070: f973 7a3d daef 99bc 5430 68bc 6c56 e1bc
00000080: 3829 113a 7ac8 9b3c 3606 003e 8742 34be
00000090: 7dda 9bbe 73b7 8ebe 0c56 2fbe 0ace 093d
000000a0: f691 1937 f694 a63e af72 95bd 05dc f8bd
000000b0: fddf 893d 8739 0dbe 5c98 10be 3a28 d1bd
000000c0: 3fcc d6bd ca6e 8a3d 6fbb 603e 03da d6bd
000000d0: c2df cc3c b51c 173e 3702 6abe 4e93 cbbc
000000e0: 5e01 c83d c515 713d de12 483d f74b 203c
000000f0: 5e40 39bd f92b 8bbe c315 f2bd 6a61 cabc
00000100: 256d 1a3e b80b 5cbd 5f26 e23d 4ee9 2cbd
00000110: 3ade 533c be5a 05be 76f3 5fbd 7d98 643e
00000120: 72bf 253d 4d20 62bd fbdb 0abe 519b a13d
00000130: f9cf 943d b2cd 6cbe e344 893d a113 39be
00000140: 4034 ddbd 3514 38be 3614 d8bd 9764 f23d
00000150: 0926 193d 5180 45bd bde9 5abe 2d9d f83d
00000160: ea05 88bd dfb0 413a 8636 22bd a0e2 683d
00000170: b0ed 8abe 6117 38be 4345 b83d 9176 42b9
00000180: c02c e03c ea0f 0f3d 1ec0 dbba 9979 90bc
00000190: 4e74 b8bc 3027 cebd 5c7c 983d b700 1c3e
000001a0: 86e4 b0bd d70e 033e 55ec c9bb 979f 58bd
000001b0: 3c50 2ebe 075e c9be e06c 0b3d 672d 95bd
000001c0: cdf4 8e3e 66f5 c83c ccf8 4f3c 5046 343e
000001d0: e932 2f3e aa6b 56bc 0e3a 663d 5fed 513d
000001e0: 8d30 d3bd 6fb1 86bc 72bf b6be 2c83 e8bc
000001f0: 92b3 60be d707 0dbe 1860 8c3e a83c 1d3d
00000200: 9cad f53d 396c 67bd f96f cabd 84e8 b83d
00000210: 4df6 39bc 7bb6 efbd 3c23 2cbe 4e2d f5bd
00000220: 7eb4 2e3e 4916 983d d018 6e3d d176 2b3d
00000230: 7126 1c3e ae3f 79bd cca2 9ebd a346 bebd
00000240: 0007 89be 787e 043e ba2f b33a 62ff dbbd
00000250: 9545 afbd b61b bc3d 4947 06be 37b2 b6bc
00000260: ad6e 753e 011f a73e f561 4fbe 3d6c babe
00000270: fda8 7fbd b774 27be dfbb dbbe ef44 4e3e
00000280: f18e 8fbd 12eb 29bd 04b2 853c e7c9 5dbe
00000290: 8abd 31bd a34e d83c 2aaa 7f3d 4afb 8abd
000002a0: c90a 223c 8fb3 583d fcab 053d 7baf 00be
000002b0: 90ef ce3d 14f5 293d fbca c0bc 8efc a33d
000002c0: 90c4 da3c 0717 28be b2f5 11be 96fb 85bd
000002d0: 2cad 5dbd 779c 20be bd5d 87be 1ad1 b7be
000002e0: 644e b6bc 73ef 82be babf 82be 260c a43b
000002f0: 3131 b2bd e7ed 4e3d b3e1 c13a 6367 2f3e
00000300: 7f9a b13e c354 4a3c 9823 1bbe a3f9 b23d
00000310: 9311 363d 1449 5d3d 3ecf d7bc 5e20 3d3d
00000320: c755 d2bc ff0a be3d bd29 1d3e 4764 e83d
00000330: 8366 3bbe 0591 ab3d d5bf b83d 2547 a5be
00000340: 72ee 103e 5dc3 933d d17a ecbe be95 be3d
00000350: 703c 82bd d78c 0bbe e24a 073e 6662 20be
00000360: f828 0dbf cce0 26bd 48fc a23e ee5c 8abe
00000370: c19b 08bf 680f 1ebc f030 823c a3ac 563c
00000380: bb0a 28bc e910 77be 6fe0 8cbe cdd0 b43c
00000390: 3ed2 c2bd f692 1b3d ff20 7abd f1b8 69bd
000003a0: d6a3 6e3c 7c71 3bbd 83cb 15bf 2dac e0be
000003b0: f0b8 5d3d bdf3 3dbe 7ee5 8cbe fcb9 42bd
000003c0: eb20 233e 7394 bbbd da3a f1bc d513 9e3e
000003d0: d5f9 ccbd 259d 0a3e 2174 38bd 1c75 5a3d
000003e0: 6428 93bd 8f79 36be 2da0 2a3e 0ec0 86be
000003f0: 459c 753e dbe5 2dbe c57a b2bd dcb0 a7bc
-0.3265645 -0.09207832 0.38355157 -0.16707902 -0.18584433 0.26134312 -0.19359846 0.10824699
0.056852967 0.015093731 -0.018389067 0.14183159 0.03775695 0.050902173 -0.127592 -0.24284802
-0.0030306813 -0.06696243 0.0003233615 -0.016828885 -0.0789928 -0.03106341 -0.107340574 -0.13774833
-0.023394633 -0.09529764 -0.09431102 -0.071240805 0.061145756 -0.018791128 -0.014171679 -0.02750703
0.0005537453 0.019016493 0.1250237 -0.17603503 -0.3044013 -0.27874336 -0.17122668 0.03364376
9.153495e-06 0.32535523 -0.07297265 -0.121513404 0.067321755 -0.13791476 -0.1412062 -0.10212751
-0.104881756 0.067594126 0.219465 -0.10490801 0.02500904 0.14757045 -0.22852407 -0.024850514
0.09765886 0.05885865 0.04884612 0.009783736 -0.0452274 -0.27181986 -0.11820557 -0.024704654
0.15080698 -0.053722113 0.11042475 -0.042214684 0.012931401 -0.13022897 -0.05467554 0.22323795
0.04046578 -0.055206586 -0.13560478 0.078909524 0.0726623 -0.23125342 0.06702592 -0.18073894
-0.108009815 -0.17976458 -0.1055073 0.11835592 0.03738979 -0.048218075 -0.21378227 0.12139354
-0.06641753 0.00073887216 -0.03960278 0.05685675 -0.27134466 -0.17977668 0.089975856 -0.00018545451
0.027365088 0.034927286 -0.0016765629 -0.017636107 -0.022516396 -0.10066068 0.07445595 0.15234648
-0.086373374 0.1279863 -0.006162206 -0.05288657 -0.17022794 -0.3932955 0.03403938 -0.072840504
0.27921143 0.024531078 0.012693595 0.17604947 0.17109264 -0.013087193 0.05620771 0.051251765
-0.10311995 -0.016442029 -0.35692936 -0.02838286 -0.219435 -0.13772522 0.27417064 0.038387924
0.11996004 -0.056499694 -0.09884638 0.09028724 -0.011350227 -0.11704727 -0.16810316 -0.11971532
0.1706104 0.074261256 0.05812913 0.04186136 0.15249039 -0.060851745 -0.07745895 -0.09290817
-0.26763153 0.12938869 0.001367084 -0.1074207 -0.085581936 0.09184973 -0.1311313 -0.022301776
0.23968 0.32640842 -0.20252211 -0.36410704 -0.06241702 -0.16353117 -0.42916772 0.20143484
-0.07009686 -0.041483946 0.016320236 -0.21659051 -0.04339365 0.026404684 0.06241814 -0.06786211
0.009890267 0.052905615 0.03263472 -0.1256694 0.10104287 0.04149349 -0.023534289 0.08007155
0.026705056 -0.16415034 -0.14253882 -0.06542127 -0.054120228 -0.15684687 -0.26438704 -0.3590172
-0.022254176 -0.2557331 -0.255369 0.005006331 -0.08700789 0.05051985 0.0014791995 0.17129283
0.34688184 0.01234931 -0.15150297 0.08739021 0.044450354 0.05402477 -0.026343938 0.046173446
-0.025675667 0.09279441 0.15347953 0.113472514 -0.18300824 0.0837727 0.09020964 -0.3228084
0.1415346 0.07214997 -0.4618745 0.09305905 -0.06359184 -0.13627945 0.1321216 -0.15662536
-0.5514064 -0.040741727 0.318331 -0.27024025 -0.5336266 -0.009647228 0.015892476 0.013102683
-0.010256465 -0.24127544 -0.2751498 0.02207222 -0.09512757 0.03798195 -0.061066624 -0.05706114
0.014565429 -0.045762524 -0.5851366 -0.4388136 0.05413145 -0.1855001 -0.2751884 -0.04754065
0.15930526 -0.09159174 -0.029447008 0.30874506 -0.10008589 0.13536508 -0.045032624 0.05333434
-0.07185438 -0.17819808 0.16662665 -0.263184 0.23985393 -0.16982214 -0.08714823 -0.020470075

conv.3.bias f4 [10]
00000000: 5f23 c83e 5464 f13e 69f7 333e daee bebd
00000010: 8ddc 4abe f67d cabd 065a 3c3f 9df0 0bbc
00000020: 6276 54be 356a c0bd
0.39089486 0.47146857 0.17574848 -0.09322901 -0.19810696 -0.098873064 0.73574865 -0.008541253
-0.20748284 -0.093952574

mlp.0.weight f4 [8, 10]
00000000: c529 433e 3f04 09bd 907b 26bf b961 d0bc
00000010: e517 57bf 88e0 ba3e 67cd 903d 9822 0fbd
00000020: 448d e73d 4c87 81bd 1393 a8bd b3c0 c63d
00000030: 1f7d 7c3c 0a7a 5e3d 1473 223c 0ae0 88bd
00000040: da19 143e eb43 2fbf 063d 34bc 0af4 0fbf
00000050: e2f4 8cbe 7b27 443d 7190 033d f858 4cbf
00000060: ef15 60be fd9d b13d f4c0 ea3d 3be9 05bf
00000070: 55f2 a0be 720b f83c 0cca a8bc 3664 e1bd
00000080: 2a0a 7abe c4d7 4bbf f3df 92be 4a08 02be
00000090: f5ad 1a3d 4b67 053e b3b0 f4be ed42 31bf
000000a0: 5203 d6be b57d 3c3e c001 0ebe 43ff a83d
000000b0: 36b6 46be d1a1 053e d2e1 33bf eaff 30bf
000000c0: f952 ddbe 3050 e2be 6e8b 7b3e f5be 0abd
000000d0: e56f 1fbf 8bd4 fabc d7f6 e1be c9a5 08be
000000e0: 5147 a33d fbdc 1abd 4dd4 e7be 8c5b 94bd
000000f0: 49a4 a03d a3f0 2cbc 6e3b 413d be17 32bc
00000100: 9155 36bf a5f9 e53d 1619 433d 33e7 84bd
00000110: 6d85 223d 2f88 1cbc 51e3 f9bd 3428 553c
00000120: 4f47 9ebd d527 923d 3cb6 a6be 508d 41bd
00000130: 33a8 8e3b b3cc a13d c9ac dabe ca65 febe
0.19058903 -0.033451315 -0.6503229 -0.025437223 -0.84020835 0.3649943 0.070704274 -0.0349451
0.11306241 -0.06324634 -0.08231177 0.09704723 0.015410691 0.054315604 0.009915132 -0.06683357
0.14462987 -0.6846301 -0.011000877 -0.5623175 -0.2753058 0.047889214 0.032120172 -0.79823256
-0.21883367 0.08672712 0.11462584 -0.52309006 -0.31434885 0.030278895 -0.020604156 -0.11005442
-0.2441794 -0.7962611 -0.28686485 -0.12698475 0.037763555 0.13027684 -0.4779106 -0.69242746
-0.41799408 0.18407328 -0.13867855 0.08251812 -0.19405445 0.1305001 -0.7026645 -0.69140494
-0.43227366 -0.44201803 0.24564907 -0.033873517 -0.6228011 -0.030618927 -0.44133636 -0.13344492
0.07972587 -0.0378084 -0.4527916 -0.07244024 0.07843835 -0.010555419 0.047175817 -0.010869918
-0.71224314 0.112292565 0.047631346 -0.0648941 0.039678026 -0.009553953 -0.1220156 0.013010073
-0.07728445 0.071365036 -0.3256091 -0.047253907 0.004353547 0.079003714 -0.4270995 -0.49687034

mlp.0.bias f4 [8]
00000000: 72ba 353f 78b3 fa3e 9b91 e93e 6f3d 0e3f
00000010: 96a8 923e beba 273f 7d29 583f 426d 1c3f
0.7098762 0.4896505 0.456189 0.5556249 0.28644246 0.6551932 0.84438306 0.61104214

mlp.1.weight f4 [10, 8]
00000000: 743b 84be e91e 143e 36b6 c4be 01b7 3b3d
00000010: aaf0 ee3e ef83 343c a27e 913e f445 6b3b
00000020: bdff a23d fd36 1d3f 93a1 f13e 7bc1 1a3c
00000030: 6440 14bf 7b89 333e b0ae 6cbd 238e 493e
00000040: 59f6 37be befb 48bd 2f43 92be 3d50 86be
00000050: 0b64 783d 5b53 273f 6871 393e 0118 a8be
00000060: 79f0 8cbe 12b8 10bf 2de8 173f 29b6 143c
00000070: 1858 033d 0091 3cbe f8c7 823e 19ec 65be
00000080: 65a3 fbbe f26d c73e e5ff d5be fc0b 94bc
00000090: 697f febe 1e0c af3d 6d86 193f 6c7c 843d
000000a0: 897a 9cbd 200e 89be 1544 95be 5665 863f
000000b0: 1f7a 143e 22ca 9dbd 54d9 b83d 695c a1bd
000000c0: 205e dfbd 700a 5c3e 7258 04be 3d1f 043d
000000d0: d4d6 50bd 4ea9 323e f557 53bf 7068 b1be
000000e0: 52ad 4f3f ecf9 b33c 0c80 a5bd d699 30bd
000000f0: 598f 363c 7fea 3dbf 1b5d 783d 1810 e3bd
00000100: f76b 8f3e a741 c3be 2f3a 3f3e 4c19 4abf
00000110: 483f 88be d746 aabd eef3 b2be 37d3 563f
00000120: 4574 603e b243 f9bd 85ba ac3e cda5 09bd
00000130: 5380 2d3f 18b1 60bc ce28 74be 5934 7abc
-0.2582661 0.14464916 -0.38420266 0.045828823 0.46667987 0.011017784 0.28416926 0.003589985
0.079589345 0.6141203 0.47193584 0.009445543 -0.5791075 0.17532913 -0.057783782 0.19683127
-0.17965068 -0.049068205 -0.28566882 -0.26233092 0.060642283 0.65361565 0.18109667 -0.32830814
-0.27527216 -0.5653087 0.5933865 0.0090766335 0.032066435 -0.18414688 0.2554319 -0.22453345
-0.49148098 0.3895107 -0.41796795 -0.01807212 -0.4970658 0.08547233 0.5997074 0.06469044
-0.07640559 -0.2676859 -0.29153505 1.0499675 0.1449971 -0.077045694 0.09025827 -0.07878954
-0.10906625 0.21488357 -0.12924364 0.032256354 -0.050986126 0.17447397 -0.82556087 -0.34649992
0.8112384 0.021969758 -0.08081064 -0.04311546 0.011142575 -0.7418594 0.060635667 -0.11087054
0.28012058 -0.38136026 0.18674539 -0.7894485 -0.2661078 -0.08314293 -0.3495173 0.8391604
0.21919353 -0.12171115 0.33736053 -0.033605386 0.6777393 -0.013714097 -0.23843691 -0.01527127

mlp.1.bias f4 [10]
00000000: 96f0 9bbd 2b85 95be 3e11 cb3c 0b4e 9a3e
00000010: 65e2 45be f765 0b3e 1283 5a3f d80c 3bbc
00000020: ae29 3b3e 57f7 973d
-0.076142475 -0.29203162 0.024788495 0.30137667 -0.19324644 0.13613115 0.8535625 -0.011416636
0.18277618 0.07420223
